Double_pendulum/model.pt (torch, 3188 bytes, 5 tensors)

0.weight f4 [12, 4]
0	0x3ee119a1	0.43964866
1	0xbee1e217	-0.44117805
2	0xbc058cc4	-0.008151237
3	0x3eba92a1	0.36439994
4	0xbf00961e	-0.5022906
5	0xbefc262c	-0.49247873
6	0xbd8a2d9c	-0.067469805
7	0x3ea0180a	0.3126834
8	0xbe77864d	-0.24172325
9	0xbe496d35	-0.19670565
10	0xbe0a02f8	-0.13477695
11	0x3e118080	0.14209175
12	0xbd0a0d4b	-0.033704083
13	0xbe6d9e3f	-0.23204897
14	0x3ee76e35	0.4520127
15	0xbe2685f8	-0.16262043
16	0xbeaf15c3	-0.3419629
17	0x3d73921c	0.059465513
18	0xbd42c7f6	-0.04755398
19	0xbcb4ec4e	-0.022085335
20	0x3dd8b9b6	0.105822966
21	0xbdf75d0a	-0.12078293
22	0x3dc957ab	0.098311745
23	0xbe74642f	-0.23866342
24	0x3ef151a8	0.4713261
25	0xbee436fc	-0.445732
26	0xbd139431	-0.03603
27	0xbe40234e	-0.18763468
28	0x3cf4693c	0.029835336
29	0x3e8e1c69	0.2775605
30	0xbeec138f	-0.46108672
31	0x3e665547	0.22493468
32	0xbe2c55d5	-0.16829617
33	0x3cd42f8a	0.025901575
34	0x3e7507a7	0.239287
35	0xbda201c7	-0.07910495
36	0xbea9639c	-0.33083808
37	0xbe31856a	-0.1733605
38	0x3ee5cc8c	0.4488262
39	0xbee101c8	-0.4394667
40	0xbe987ee0	-0.29784298
41	0xbee6de74	-0.45091593
42	0x3d5de871	0.05417675
43	0xbe0be745	-0.13662441
44	0x3ea732cb	0.3265594
45	0xbd4e77e1	-0.050407294
46	0x3eaae83b	0.33380303
47	0x3e9c9dd1	0.30589154

0.bias f4 [12]
0	0x3f010bd1	0.50408655
1	0x3eb570a6	0.35437506
2	0xbe7a3e62	-0.2443786
3	0xbe3b4a53	-0.18290071
4	0x3e13790c	0.14401644
5	0xbdbce2cf	-0.09222948
6	0xbee4d591	-0.44694188
7	0xbe8059bb	-0.2506846
8	0xbd8bc06e	-0.068238124
9	0xbe8c05ce	-0.2734818
10	0x3dac3a9a	0.08409615
11	0x3e0d8dbd	0.138236

2.weight f4 [12, 12]
0	0xbe0474f5	-0.1293524
1	0x3e828e78	0.2549932
2	0x3e27e873	0.16397266
3	0x3d258a6e	0.04041522
4	0x3e15e843	0.14639382
5	0x3e0d4d9c	0.13799137
6	0x3e36c1bf	0.17847346
7	0x3d9d4e1e	0.07680915
8	0x3e5c14cf	0.21492313
9	0xbe802ab6	-0.25032586
10	0x3e46c290	0.19410157
11	0xbe055f46	-0.13024625
12	0x3dfb105a	0.12258978
13	0xbd554301	-0.052065853
14	0x3e2cde8d	0.16881771
15	0xbe1b2e03	-0.15154271
16	0x3e1e92ea	0.15485731
17	0xbe1bc4d1	-0.15211798
18	0x3e2f68ac	0.17129773
19	0x3e3fbf50	0.18725324
20	0xbd7af72c	-0.061270878
21	0xbc74867c	-0.014924642
22	0xbe2b95ed	-0.16756411
23	0x3e9297d2	0.28631455
24	0xbe91e62b	-0.28495917
25	0xbcba929c	-0.022774987
26	0xbe272f9d	-0.16326757
27	0xbd285e9c	-0.04110585
28	0xbd56a3b6	-0.05240222
29	0x3e2c3e15	0.16820557
30	0x3e822214	0.25416625
31	0x3e463267	0.19355164
32	0x3e95974b	0.2921699
33	0x3d9472eb	0.07248481
34	0x3e8dd3be	0.2770061
35	0x3defe24d	0.11713085
36	0x3db700fd	0.089357354
37	0xbe19ecdd	-0.15031762
38	0xbe1a9ad5	-0.15098126
39	0x3e3bbb6a	0.18333212
40	0xbe8783fe	-0.2646789
41	0xbe8ae62b	-0.2712873
42	0x3e813023	0.25232038
43	0xbe59356d	-0.21211787
44	0xbdea6763	-0.11445501
45	0x3e30928a	0.172434
46	0x3e17a54b	0.14809148
47	0xbe483c6c	-0.19554299
48	0x3db8d364	0.090246946
49	0xbd1433cf	-0.03618222
50	0xbe4b8af7	-0.1987723
51	0x3e46d667	0.19417726
52	0xbdd01b89	-0.10161502
53	0x3c8ce851	0.01720062
54	0xbc9388bf	-0.018009542
55	0xbe175689	-0.14779104
56	0xbd56e0f8	-0.05246064
57	0xbd3fe41f	-0.046848413
58	0x3e83ab66	0.25716704
59	0x3e61d02f	0.22052072
60	0xbe48485b	-0.19558851
61	0xbe91e87e	-0.2849769
62	0x3cd2d647	0.025736941
63	0xbdc4625f	-0.09589075
64	0xbdfb3bce	-0.12267266
65	0x3e234da3	0.15947585
66	0x3dff7f2f	0.1247543
67	0x3d093b29	0.033503685
68	0xbb84e045	-0.0040550553
69	0xbdcc03d6	-0.09961669
70	0x3e6bce0d	0.23027821
71	0x3d91e3ad	0.07123504
72	0xbe2b9a66	-0.16758117
73	0xbde315e9	-0.110881634
74	0x3e1e4d60	0.15459204
75	0x3e960597	0.2930114
76	0xbe95e1d6	-0.29273862
77	0xbc162a93	-0.009165424
78	0x3e89758b	0.2684749
79	0x3e3bcdcd	0.18340226
80	0x3e5e82f6	0.21729645
81	0x3e8ab79a	0.27093202
82	0xbe038477	-0.128435
83	0xbc4f4da6	-0.01265279
84	0x3e7da6ca	0.24770656
85	0x3e07cdee	0.1326215
86	0x3e8cc3b6	0.27493066
87	0x3e450625	0.19240625
88	0x3df646a4	0.120251924
89	0xbe9096f1	-0.2824016
90	0xbe86ef31	-0.26354364
91	0xbd6187d3	-0.055061173
92	0x3dc1a5a2	0.0945542
93	0x3e33839c	0.17530674
94	0xbdc8dfc6	-0.098083064
95	0x3d429c3c	0.047512278
96	0x3d3e5b5e	0.046473853
97	0x3e6a5982	0.22885707
98	0xbe651f6d	-0.22375269
99	0x3e4e9093	0.20172338
100	0x3dd72f6b	0.10507091
101	0x3e3d2efc	0.18474954
102	0xbe3f8420	-0.18702745
103	0x3e982823	0.29718122
104	0x3cfe1a42	0.03101838
105	0xbe0aad34	-0.13542634
106	0xbdad8a58	-0.084736526
107	0xbdb32bb0	-0.08748567
108	0xbde6bf45	-0.112669505
109	0x3bb16ce5	0.0054145926
110	0xbe97047f	-0.29495618
111	0x3e953931	0.29145196
112	0x3e65ca7b	0.22440521
113	0x3dce2515	0.100656666
114	0xbe728bfd	-0.23686214
115	0xbdf4efc2	-0.11959793
116	0xbd759363	-0.059955012
117	0xbd26af23	-0.040694367
118	0x3e8e78d8	0.2782657
119	0x3dd9a7a1	0.10627676
120	0xbdf03b0e	-0.11730014
121	0xbe8fdd77	-0.28098652
122	0x3e877509	0.26456478
123	0xbe87d7ec	-0.26531923
124	0xbe04e0a2	-0.12976316
125	0x3e0c9f6a	0.13732687
126	0x3dcef769	0.101057835
127	0x3e796e46	0.24358472
128	0xbd9eba69	-0.07750399
129	0x3e41a4a2	0.18910459
130	0xbcfbd1ec	-0.030739747
131	0x3d938bd1	0.07204402
132	0x3e031fba	0.12805071
133	0xbda1f5fd	-0.07908247
134	0x3e8393b2	0.2569862
135	0xbe24c7b2	-0.16091803
136	0xbe8fa289	-0.28053692
137	0x3cc2d3c8	0.023782626
138	0xbdd02cf6	-0.101648256
139	0xbd94fbaa	-0.072745636
140	0xbe52ff34	-0.20605165
141	0xbdbf0443	-0.09326985
142	0xbcff1460	-0.031137645
143	0xbc2a5079	-0.010395163

2.bias f4 [12]
0	0xbd89327f	-0.066990845
1	0x3cb032b4	0.021508552
2	0x3e2c3532	0.16817167
3	0xbe6fd412	-0.23420742
4	0x3d7cb177	0.06169268
5	0xbd391527	-0.045186188
6	0xbe4bb479	-0.19893064
7	0xbe8e5e80	-0.27806473
8	0x3e7352cf	0.23762058
9	0xbe91afbe	-0.28454393
10	0x3e166ffd	0.14691158
11	0xbd91525e	-0.070957884

4.weight f4 [1, 12]
0	0x3ca142b0	0.01968512
1	0xbe12470f	-0.14284919
2	0x3e8f7654	0.28019965
3	0x3e011607	0.12606059
4	0x3e1282c0	0.1430769
5	0x3e6e67d3	0.23281793
6	0x3e04815d	0.12939973
7	0x3e5f1ef6	0.21789154
8	0xbc9b11da	-0.01892941
9	0x3de24161	0.11047626
10	0x3d490d0f	0.04908472
11	0x3db44be1	0.08803535
