Third_pendulum/models/model.pt (torch, 21172 bytes, 5 tensors)

line_stack.0.weight f4 [64, 6]
-0.030518671 -0.425868 0.22912203 -0.03816497 0.1716011 -0.07835517 0.15770414 0.22335942
0.31497237 0.014478314 -0.054466132 -0.038820714 0.8018434 0.6286667 -0.061597932 0.13042644
-0.24563545 0.23889369 -0.31305307 -0.030789092 0.3811688 0.017846577 -0.07925464 -0.08960573
-0.1318869 -0.44678277 -0.302409 0.027225109 -0.31553984 -0.12177955 0.16526064 -0.013937861
0.20975304 -0.01647695 0.15800294 -0.03761894 -0.09347675 0.1701782 0.032537047 0.57278204
0.013219046 -0.4110217 0.5731764 -0.1825925 0.070144124 -0.3209265 -0.09266674 0.21221519
0.124822676 0.050037403 0.09633815 0.006771319 0.03935798 0.07219152 -0.016616058 0.22455671
0.08075272 -0.05495186 0.08908726 0.015753184 -0.39096415 -0.11473561 0.60111827 -0.20597777
0.2450138 0.12875697 0.7721795 0.6027415 -0.5927727 0.33477348 0.22327055 -0.05883112
0.09971963 -0.2673772 0.1383283 -0.08938255 0.33790585 -0.44489282 -0.10693622 0.23471028
0.20342024 -0.3071331 0.0528639 0.09508251 0.31821063 0.3776021 -0.62775964 0.1069197
0.14933394 -0.022981348 0.17007394 0.4372801 0.22986852 0.052360922 -0.031499453 -0.28631043
0.157483 0.05139321 0.03903982 0.01692238 0.02148338 0.01267205 0.07900758 0.24968551
0.22256222 0.085922435 -0.05815818 -0.10647466 -0.066582225 0.14098954 -0.25646248 0.07916481
-0.019013152 0.065691404 0.25003973 -0.03676995 0.01332943 -0.10178615 -0.17199399 -0.17620598
-0.049741082 -0.16459411 0.046421897 -0.1272691 -0.12136579 0.07689505 0.095961206 -0.14779511
0.069842234 0.20142867 0.075865276 -0.038380902 0.012082709 0.1832275 -0.3320357 -0.010347934
0.058502905 -0.07294978 0.12775847 -0.15181758 -0.056873158 0.06151666 -0.030263273 0.16255455
0.031532083 0.013577305 0.26854962 -0.19168271 0.7936466 -0.06191855 0.29870498 -0.48021063
0.34361866 0.03171981 0.03460919 -0.08364123 -0.21359006 -0.011050491 0.16705467 0.43448627
0.4383019 -0.45988762 0.012605957 -0.0150329815 -0.11945348 -0.074218936 -0.11009784 0.044353977
-0.27263325 -0.023733875 -0.32814488 -0.11815231 0.14092521 0.15557048 -0.025382476 0.463998
0.09729142 -0.07843349 0.050585166 0.04108864 0.062204555 0.235629 0.2534634 -0.12824203
0.16844353 -0.005157841 -0.013587953 -0.09204376 -0.115518935 0.22477387 -0.17046982 0.7430187
-0.18415725 -0.12034389 -0.07822976 0.2958581 0.026030075 -0.42081946 -0.5083098 -0.948132
-0.8792365 0.115098186 0.14884919 -0.016418666 -0.39964387 -0.53014636 -0.39046544 -0.66249627
-0.039740864 -0.2074487 -0.15154974 0.02349781 -0.13185251 0.06916014 0.06444611 0.19291791
0.10789136 0.5252845 0.12821275 -0.6754873 -0.07113936 0.10584151 -0.22711046 -0.2048838
0.76249546 0.023119248 -0.11483283 -0.012645623 0.10523289 0.1437964 -0.4750521 -0.103330396
0.5265385 -0.100552514 0.19190091 0.52200866 0.2645782 0.26312178 0.23814456 0.32678023
-0.22343038 -0.18618435 -0.058000572 0.058663532 -0.002022021 -0.075654104 0.30707243 -0.111556105
-0.18001999 0.121674754 -0.02225592 0.07593627 0.079955384 -0.09187444 0.2510362 0.10856509
00000000: 4b02 fabc 5f0b dabe f79e 6a3e df52 1cbd
00000010: 33b8 2f3e ad78 a0bd 327d 213e 55b8 643e
00000020: 0f44 a13e 7336 6d3c e117 5fbd 7802 1fbd
00000030: 9c45 4d3f 4df0 203f 1d4e 7cbd 828e 053e
00000040: dc87 7bbe 8ca0 743e 7e48 a0be 6839 fcbc
00000050: 8f28 c33e fc32 923c 4250 a2bd 3583 b7bd
00000060: 5c0d 07be b6c0 e4be 5ad5 9abe 3107 df3c
00000070: 708e a1be 8f67 f9bd 163a 293e a05b 64bc
00000080: 80c9 563e abfa 86bc 86cb 213e 5116 1abd
00000090: bd70 bfbd 3243 2e3e 9145 053d d8a1 123f
000000a0: b394 583c 7071 d2be b0bb 123f 87f9 3abe
000000b0: b9a7 8f3d 7a50 a4be 0fc8 bdbd f04e 593e
000000c0: 08a3 ff3d 05f4 4c3d f04c c53d f1e1 dd3b
000000d0: d535 213d 26d9 933d 661e 88bc 32f2 653e
000000e0: af61 a53d 3415 61bd 6273 b63d d20c 813c
000000f0: 742c c8be 81fa eabd e3e2 193f d6eb 52be
00000100: e6e4 7a3e ded8 033e 8ead 453f 444d 1a3f
00000110: f4bf 17bf 6e67 ab3e 09a1 643e e7f8 70bd
00000120: ce39 cc3d aae5 88be efa5 0d3e 330e b7bd
00000130: ff01 ad3e fec8 e3be 6001 dbbd e457 703e
00000140: 654d 503e 8d40 9dbe d187 583d 9eba c23d
00000150: 81ec a23e 1055 c13e dbb4 20bf b7f8 da3d
00000160: ffea 183e 6143 bcbc dd27 2e3e 2de3 df3e
00000170: a762 6b3e 6878 563d 9205 01bd 4897 92be
00000180: 3943 213e b081 523d 38e8 1f3d cea0 8a3c
00000190: eafd af3c 6e9e 4f3c bace a13d 8fad 7f3e
000001a0: 5ae7 633e 1af8 af3d 4637 6ebd 630f dabd
000001b0: 435c 88bd 905f 103e 0d4f 83be 2921 a23d
000001c0: 78c1 9bbc 3789 863d 3505 803e 169c 16bd
000001d0: ae63 5a3c 4275 d0bd 311f 30be 576f 34be
000001e0: 4ebd 4bbd 5c8b 28be e324 3e3d d552 02be
000001f0: a18e f8bd 277b 9d3d 4f87 c43d 9a57 17be
00000200: 7209 8f3d 5143 4e3e 415f 9b3d 4b35 1dbd
00000210: 8ef6 453c fd9f 3b3e 9500 aabe 628a 29bc
00000220: bea0 6f3d b266 95bd 1ed3 023e 1176 1bbe
00000230: d4f3 68bd e5f8 7b3d afea f7bc b374 263e
00000240: c927 013d 5873 5e3c 567f 893e 7948 44be
00000250: 6c2c 4b3f 4e9e 7dbd dcef 983e 2bde f5be
00000260: c9ee af3e a2ec 013d 5ec2 0d3d 184c abbd
00000270: 5ab7 5abe 1e0d 35bc 6110 2b3e fc74 de3e
00000280: 1b69 e03e 6476 ebbe 3789 4e3c e54c 76bc
00000290: 07a4 f4bd 1900 98bd fa7a e1bd 84ac 353d
000002a0: 9696 8bbe 8b6d c2bc 9b02 a8be d7f9 f1bd
000002b0: b34e 103e de4d 1f3e e9ee cfbc 2591 ed3e
000002c0: b940 c73d bda1 a0bd 6432 4f3d 904c 283d
000002d0: 34ca 7e3d bb48 713e f4c5 813e e151 03be
000002e0: 767c 2c3e 1b03 a9bb 01a0 5ebc 7081 bcbd
000002f0: 3195 ecbd 1f2b 663e a48f 2ebe 7936 3e3f
00000300: b893 3cbe db76 f6bd ed36 a0bd b67a 973e
00000310: 063d d53c a675 d7be 9720 02bf c7b8 72bf
00000320: a515 61bf 99b8 eb3d ec6b 183e 7080 86bc
00000330: 1f9e ccbe acb7 07bf 16eb c7be 5b99 29bf
00000340: 51c7 22bd 6f6d 54be db2f 1bbe 7b7e c03c
00000350: 5804 07be d5a3 8d3d 52fc 833d 468c 453e
00000360: 25f6 dc3d 0c79 063f 344a 033e bcec 2cbf
00000370: 83b1 91bd 6fc3 d83d a58f 68be 0fcd 51be
00000380: e732 433f 9464 bd3c 7a2d ebbd 962f 4fbc
00000390: 5784 d73d 5d3f 133e 073a f3be e39e d3bd
000003a0: 3acb 063f 7aee cdbd ac81 443e 5ca2 053f
000003b0: cb76 873e e6b7 863e 2bdc 733e bd4f a73e
000003c0: efca 64be 1ca7 3ebe 0292 6dbd 2c49 703d
000003d0: e283 04bb 8af0 9abd 9938 9d3e 8777 e4bd
000003e0: 2957 38be 9d30 f93d 0c52 b6bc 7a84 9b3d
000003f0: a6bf a33d ab28 bcbd d187 803e 6057 de3d

line_stack.0.bias f4 [64]
0.46952307 -0.6146686 -0.21842909 0.2141838 -0.0288688 -0.5265957 0.26432508 0.106592126
-0.4270948 -0.22090559 -0.11751811 -0.110330075 0.12235023 -0.40835282 -0.09680438 -0.20051123
-0.27371424 -0.3250962 -0.38984329 0.052942235 0.15915538 -0.28791228 0.30541462 -0.30151027
0.047599602 0.16865574 0.2225833 0.22244121 0.52436256 -0.60560125 -0.54676676 0.41571733
0.28283092 0.40089157 -0.0041421317 -0.31121725 -0.11562542 0.21300243 0.39275122 0.039611135
0.35192302 -0.4790996 -0.5795117 -0.18552752 0.1117754 -0.4292129 0.22069217 -0.09396554
-0.2805187 -0.3401556 -0.37979096 -0.37145743 -0.52490866 0.38304555 -0.62920326 0.20660536
-0.295006 0.099174716 0.0539751 0.13597794 -0.42984575 0.74696183 0.5123591 -0.31894147
00000000: 5465 f03e ec5a 1dbf e0ab 5fbe 0053 5b3e
00000010: 437e ecbc face 06bf 9e55 873e f94c da3d
00000020: 2bac dabe 1335 62be 56ad f0bd bcf4 e1bd
00000030: c292 fa3d 9f13 d1be 6041 c6bd d152 4dbe
00000040: 4624 8cbe 0273 a6be 8a99 c7be f5d9 583d
00000050: a1f9 223e 3d69 93be 4e5f 9c3e 8e5f 9abe
00000060: cdf7 423d 17b4 2c3e e0ec 633e a1c7 633e
00000070: a03c 063f af08 1bbf e8f8 0bbf e7d8 d43e
00000080: 37cf 903e a941 cd3e b8ba 87bb de57 9fbe
00000090: 05cd ecbd 4f1d 5a3e b016 c93e 493f 223d
000000a0: 412f b43e 8b4c f5be e15a 14bf edfa 3dbe
000000b0: 80ea e43d cbc1 dbbe 21fd 613e 0171 c0bd
000000c0: 26a0 8fbe e028 aebe f673 c2be ab2f bebe
000000d0: 6a60 06bf 8c1e c43e 7713 21bf 5b90 533e
000000e0: 070b 97be 1d1c cb3d ff14 5d3d cd3d 0b3e
000000f0: be14 dcbe e438 3f3f f729 033f 4c4c a3be

line_stack.2.weight f4 [64, 64]
0.12105661 0.17856097 -0.30188528 0.06038766 0.19167261 -0.13446036 -0.011527156 0.06929971
-0.09323024 0.26737994 0.10898551 0.2428353 -0.08303985 0.067790575 -0.025260305 -0.08545676
-0.022170799 0.113950625 -0.11999113 -0.08278621 -0.26005626 0.024214152 0.095783524 0.028870843
-0.13113096 0.18571126 0.056835603 0.04992082 0.09735083 0.008707865 -0.119826525 -0.1295411
0.12699482 -0.030451996 -0.11495979 0.14655441 -0.050804283 -0.10450429 0.007392741 -0.031002417
-0.018454984 -0.15586585 -0.09042191 0.10213557 0.049177255 0.05049546 0.21218373 -0.09295778
0.06621029 -0.29400605 0.15301244 0.11085258 0.28316295 -0.023524387 -0.016989697 -0.18939365
-0.07408353 -0.07141527 0.02673905 0.065451324 0.14690366 -0.083364725 0.1851138 -0.024683915
-0.01632818 0.013007888 -0.14830783 -0.19518368 0.03596152 0.08513073 -0.033357702 -0.022764126
-0.05640957 0.035118476 0.32936758 0.15692112 0.26318267 -0.08520091 -0.030772379 0.06700202
0.29181355 -0.09236849 0.0008302029 0.12917222 0.12109619 0.14178577 -0.03376001 0.2580793
0.17077017 0.032503534 0.05394345 -0.15669928 0.060390156 -0.038418107 0.037700117 -0.2493875
-0.09852683 -0.097654514 0.0744494 0.0830635 -0.1416237 -0.3248266 0.24885398 0.077589266
0.18999292 0.054237764 0.0012239858 -0.052191757 0.10205732 -0.20464185 -0.032114282 -0.26197767
0.11119086 -0.0969504 0.12966007 -0.076313645 0.14189553 0.1573332 0.3797991 -0.002764498
0.27026486 0.03810221 0.049699433 -0.105579235 -0.010448147 -0.28581893 -0.027513077 -0.17581241
-0.091613166 0.28613445 0.07608049 0.2801787 0.18588066 0.008417404 0.04379069 -0.15338005
-0.30839002 -0.12944734 0.046820503 -0.0908639 0.1353898 0.088045 -0.14469533 -0.33612448
-0.04390533 -0.019139735 0.32363182 0.06390255 -0.11625213 -0.33665103 0.15885073 -0.11803946
-0.15969457 -0.072618835 -0.0824553 0.16301802 -0.12418347 -0.19447666 -0.12360336 -0.053806197
0.11048877 0.044773515 0.06459401 -0.13659135 -0.0415423 -0.11619374 -0.49619907 -0.20803842
-0.09038702 0.066927016 -0.05929736 0.032709323 0.04950821 0.21900348 0.10979864 -0.26462445
-0.12482082 -0.072766855 -0.08155128 0.1686211 -0.4317933 0.057087578 0.024550866 0.11212459
0.05891182 0.26565605 -0.28182644 -0.050298054 -0.005883837 -0.16816889 -0.1464981 0.05541212
-0.08987782 0.15030128 -0.13470581 -0.19230776 0.0024148803 0.040007584 0.0042004576 0.1912814
0.031406853 0.29547122 0.068613 0.1127731 0.011203689 -0.102501325 -0.17581658 -0.01460276
-0.10421082 0.079075724 -0.09149032 -0.12948419 0.041817233 0.05461534 -0.041212205 -0.038776144
-0.15817627 -0.011647754 0.010128198 -0.16776523 0.023780502 -0.07958225 0.0057402365 -0.016315507
0.024463141 0.20376939 -0.0893832 0.1839317 0.01421496 0.016574714 0.09220051 -0.035243064
0.1083641 -0.050180245 -0.17401709 -0.030878484 -0.11015933 0.07870606 0.037371784 0.029456513
0.12423737 0.037896845 -0.088654906 0.08669951 -0.10280498 -0.09896817 0.097331196 0.06970596
-0.20789292 0.019881843 0.018803636 -0.0023173525 -0.06688046 0.09873027 -0.0632504 -0.059207674
00000000: 87ec f73d b0d8 363e b590 9abe 0d59 773d
00000010: d345 443e faaf 09be 66dc 3cbc 02ed 8d3d
00000020: 7fef bebd 06e6 883e cc33 df3d d1a9 783e
00000030: cc10 aabd c9d5 8a3d b3ee cebc f403 afbd
00000040: 899f b5bc f25e e93d e9bd f5bd d18b a9bd
00000050: 1826 85be c25c c63c 272a c43d 8c82 ec3c
00000060: 3247 06be 182b 3e3e 73cc 683d c679 4c3d
00000070: df5f c73d 6fab 0e3c 9c67 f5bd 6ca6 04be
00000080: ee0a 023e 7776 f9bc 0a70 ebbd 5c12 163e
00000090: 2718 50bd 5806 d6bd ce3e f23b c8f8 fdbc
000000a0: e82e 97bc 4c9b 1fbe 1f2f b9bd 742c d13d
000000b0: 176e 493d 54d4 4e3d b146 593e a660 bebd
000000c0: 4399 873d f687 96be 4baf 1c3e ad06 e33d
000000d0: bcfa 903e 37b6 c0bc fa2d 8bbc 69f0 41be
000000e0: 1bb9 97bd 2b42 92bd da0b db3c 580b 863d
000000f0: ea6d 163e 20bb aabd 798e 3d3e ec35 cabc
00000100: adc2 85bc 091f 553c 02de 17be 3bde 47be
00000110: 634c 133d 0559 ae3d 16a2 08bd d57b babc
00000120: b90d 67bd 64d8 0f3d dea2 a83e eeaf 203e
00000130: e1bf 863e d17d aebd 5b16 fcbc 5b38 893d
00000140: 9668 953e b12b bdbd f9a1 593a b945 043e
00000150: 4701 f83d 4a30 113e f047 0abd f822 843e
00000160: 60de 2e3e 6d22 053d cff3 5c3d c775 20be
00000170: ab5b 773d 4e5c 1dbd 706b 1a3d 705f 7fbe
00000180: 6fc8 c9bd 17ff c7bd ed78 983d 321d aa3d
00000190: ce05 11be ac4f a6be 94d3 7e3e 1fe7 9e3d
000001a0: 818d 423e 6b28 5e3d 266e a03a 06c7 55bd
000001b0: 6e03 d13d a28d 51be 448a 03bd f021 86be
000001c0: 09b8 e33d ee8d c6bd 9cc5 043e 544a 9cbd
000001d0: 104d 113e f41b 213e 0775 c23e 942c 35bb
000001e0: 2860 8a3e 1011 1c3d a291 4b3d ed39 d8bd
000001f0: b42e 2bbc dc56 92be 1b63 e1bc 2b08 34be
00000200: af9f bbbd 3780 923e 17d0 9b3d 9573 8f3e
00000210: 8057 3e3e 27e9 093c de5d 333d a90f 1dbe
00000220: 4ce5 9dbe d88d 04be dbc6 3f3d da16 babd
00000230: a0a3 0a3e f050 b43d 032b 14be 8218 acbe
00000240: 13d6 33bd efca 9cbc 12b3 a53e 57df 823d
00000250: 9915 eebd 865d acbe c4a9 223e acbe f1bd
00000260: f986 23be 2fb9 94bd 53de a8bd 32ee 263e
00000270: e753 febd e424 47be c223 fdbd e363 5cbd
00000280: f047 e23d 6f64 373d dd49 843d 9ade 0bbe
00000290: 4228 2abd fcf6 edbd ce0d febe 0608 55be
000002a0: d41c b9bd 0811 893d cae1 72bd 36fa 053d
000002b0: 1fc9 4a3d 7342 603e 1cde e03d db7c 87be
000002c0: 0fa2 ffbd ca06 95bd 5c04 a7bd 02ab 2c3e
000002d0: 0314 ddbe aad4 693d e61e c93c 94a1 e53d
000002e0: 854d 713d 1204 883e 8e4b 90be 5505 4ebd
000002f0: 34cd c0bb 7734 2cbe 9903 16be d2f7 623d
00000300: dd11 b8bd 94e8 193e 52f0 09be 53ec 44be
00000310: f842 1e3b fede 233d fea3 893b 45df 433e
00000320: 79a4 003d 0148 973e f984 8c3d 95f5 e63d
00000330: ad8f 373c 37ec d1bd 4309 34be 6a40 6fbc
00000340: 7b6c d5bd 74f2 a13d 475f bbbd 8197 04be
00000350: 8c48 2b3d 56b4 5f3d 21ce 28bd bcd3 1ebd
00000360: f6f8 21be 39d6 3ebc bef0 253c a6ca 2bbe
00000370: 54cf c23c 05fc a2bd 9818 bc3b 19a8 85bc
00000380: ed66 c83c eca8 503e 8a0e b7bd 9758 3c3e
00000390: dde5 683c b2c7 873c 9fd3 bc3d 085b 10bd
000003a0: ffed dd3d cd89 4dbd 8931 32be e0f4 fcbc
000003b0: 379b e1bd a530 a13d 2813 193d c94e f13c
000003c0: 2a70 fe3d b939 1b3d b490 b5bd 838f b13d
000003d0: 6b8b d2bd d3af cabd 9455 c73d 00c2 8e3d
000003e0: e2e1 54be 3fdf a23c 150a 9a3c b9de 17bb
000003f0: 9ff8 88bd 1933 ca3d 6d89 81bd bf83 72bd

line_stack.2.bias f4 [64]
-0.024845378 -0.018840203 -0.050673533 -0.0748016 -0.07018306 -0.06427778 -0.042461272 -0.0349118
-0.0015235819 0.16984083 0.06572329 0.019017559 0.028612105 0.011019737 -0.003959529 -0.007803263
-0.11510444 -0.0063493927 -0.045891486 -0.11197823 0.04895763 -0.063727774 -0.0046366705 -0.041138243
-0.03822424 -0.106120035 0.03756253 0.036090262 -0.0023319202 -0.11162962 0.0019048436 0.036936324
0.036499217 0.0214368 0.033488486 0.045968883 -0.051516987 0.017795611 -0.0035623393 0.049670883
0.011430302 -0.03235703 0.07377614 -0.09363079 0.06336284 0.0013235887 -0.010117751 0.005032237
0.0230604 0.04760901 0.04336057 0.08683547 -0.008713182 -0.060313445 -0.024008363 -0.085779645
-0.006189605 0.036123518 -0.023807649 -0.007010534 0.061213773 -0.0056519806 -0.12444282 0.09106422
00000000: 8988 cbbc c556 9abc 0d8f 4fbd 9531 99bd
00000010: 23bc 8fbd 12a4 83bd dfeb 2dbd adff 0ebd
00000020: edb2 c7ba c1ea 2d3e ef99 863d b6ca 9b3c
00000030: ef63 ea3c 218c 343c f0be 81bb 84b2 ffbb
00000040: e0bb ebbd 910e d0bb b6f8 3bbd d854 e5bd
00000050: cc87 483d b583 82bd 36ef 97bb 9380 28bd
00000060: 0591 1cbd 7655 d9bd 2bdb 193d 62d3 133d
00000070: 21d3 18bb 129e e4bd f2ab f93a 8b4a 173d
00000080: 3480 153d 3a9c af3c 392b 093d de49 3c3d
00000090: 7a03 53bd 1ac8 913c 2376 69bb b273 4b3d
000000a0: 2946 3b3c ce88 04bd f217 973d 80c1 bfbd
000000b0: 60c4 813d 447c ad3a ecc4 25bc 77e5 a43b
000000c0: 2ae9 bc3c aa01 433d da9a 313d cbd6 b13d
000000d0: bcc1 0ebc 3b0b 77bd 30ad c4bc 3dad afbd
000000e0: 2cd2 cabb 41f6 133d 4208 c3bc 9fb8 e5bb
000000f0: 4bbb 7a3d 4034 b9bb e1db febd e17f ba3d

line_stack.4.weight f4 [1, 64]
0.0019755587 0.17385623 -0.32358047 0.0038295232 0.053533155 0.101459116 0.0008509131 -0.071473345
-0.20651713 -0.22843035 -0.027313555 -0.0025028838 0.10324757 -0.0021094594 -0.0003906684 0.0027027344
0.5428847 0.0041712387 0.07707943 -0.39021403 -0.31037036 0.0738197 -0.0013724947 -0.10409535
-0.059181686 0.21581087 -0.09614399 -0.0053182896 -0.0020958043 0.055131488 0.0011172199 0.0021567866
-0.064375654 0.055513572 -0.19154315 0.0025919825 -0.15313709 0.00015648006 0.00039121124 0.005109956
0.00031463947 -0.043238517 -0.13722216 0.074376285 -0.18235512 -0.0007370382 0.1412154 -0.000601702
-0.00042281943 0.00042215956 -0.047426876 0.20689686 -0.0011503975 0.00078567176 -0.0015832925 0.13047157
-0.0021741008 -0.09800371 -0.123042844 -0.002006777 0.17181602 0.0024497649 -0.1514239 -0.16103014
00000000: 6078 013b 5e07 323e 57ac a5be bdf8 7a3b
00000010: 9545 5b3d ccc9 cf3d d00f 5f3a 9e60 92bd
00000020: 3a79 53be a5e9 69be adc0 dfbc 6c07 24bb
00000030: 7673 d33d db3e 0abb a0d2 ccb9 5c20 313b
00000040: 7efa 0a3f e3ae 883b d2db 9d3d 22ca c7be
00000050: dde8 9ebe c82e 973d 48e5 b3ba f12f d5bd
00000060: 7f68 72bd 86fd 5c3e 24e7 c4bd 0c45 aebb
00000070: c359 09bb 8ed1 613d ae6f 923a e058 0d3b
00000080: 62d7 83bd 3362 633d e323 44be 40de 293b
00000090: f8cf 1cbe cc14 2439 7c1b cd39 6b71 a73b
000000a0: 32f6 a439 df1a 31bd f783 0cbe 9852 983d
000000b0: 4dbb 3abe cc35 41ba c59a 103e 8abb 1dba
000000c0: ddad ddb9 4c55 dd39 af42 42bd c5dc 533e
000000d0: efc8 96ba 8af5 4d3a 7b86 cfba 579a 053e
000000e0: 5c7b 0ebb 2bb6 c8bd e3fd fbbd 2284 03bb
000000f0: 8af0 2f3e 3c8c 203b de0e 1bbe 16e5 24be
