Third_pendulum/models/model.pt (torch, 21172 bytes, 5 tensors)

line_stack.0.weight f4 [64, 6]
00000000: c07f 99be cce9 90bc 98f2 22bc 84cb d1bc
00000010: 35e4 79ba e810 d03c ee36 993e d8db a13d
00000020: 1d74 ed3c 7fac 8cbd 33c2 97be 4d33 323e
00000030: 0500 c5bd 921a edbd 7212 103e 8e92 a93e
00000040: c41c 59be 129d afbd a1f2 843e 22d4 cbbc
00000050: f85a b53d 1807 92be c9bd be3d 3543 273e
00000060: fa41 3ebd c2b7 4ebe 23fd 57be 255e 853e
00000070: 9364 83bd f730 97bd 27f0 6c3d 1e16 8c3d
00000080: 2313 abbd dd10 c23d 8022 a43c 03de 59bd
00000090: 82b4 363e 2904 aabd b765 eebd 2a41 89bc
000000a0: ff32 debd 743f 77bb 539b 3f3d c44d 333e
000000b0: 12d1 993d 81ef 4ebe e9be dbbd 0c93 a13d
000000c0: 6284 c2be f7b5 c63d b87e aebd 8008 9b3d
000000d0: ba61 eebc 929d 893e 50e7 2fbe 0d6b 473e
000000e0: dd86 07bf 8191 dfbd 5536 9bbe 4316 a2bd
000000f0: 29df 70be d695 abbd 08d0 e03b dcdf 89bd
00000100: af29 07bd 736f c43d 9b15 9cbd f13c a6be
00000110: d85a ba3d a227 383e 4c81 35be 4215 07be
00000120: 7746 cfbe 945d 6fbc 5f17 b23e 5b17 84be
00000130: 4177 273e 44b7 633e 7c15 443e 313f 10bc
00000140: 02c7 b4bc 58b7 87be 9946 213e 05a6 a2be
00000150: ba0e 5d3d 97ea 7a3d 7ffc 74bd 661e 0bbd
00000160: 51f1 29bd 44ee 0dba 3c0e 59be 7320 99be
00000170: 9239 abbb 3ccb 353d 1666 563e d918 a7bd
00000180: 65aa 89be 9c6b 293d 7419 dfba d7c4 26be
00000190: aea5 053e 015b 3dbd b451 b2be 9dc4 5c3e
000001a0: f42a 94bd 6abb 82be 5df8 b2bd a74e 83be
000001b0: 37c6 5b3d a1a2 d1be b626 023d f79d 823e
000001c0: 842e 9dbe 7e1d 933c 71fa 6dbe dbfc a6bd
000001d0: 6530 2dbe d1b6 a4be 8e11 56be 2ff9 0dbe
000001e0: 1025 dfbe 2da7 3bbd e119 393e 2dec 8a3d
000001f0: 9123 abbd 5336 e63d 0056 c33d dfce 40be
00000200: bbd7 b3bd 8f14 92be 745f 733e ab07 bebd
00000210: dfbf ec3d a452 dcbd 2cb9 a6be 56f7 823e
00000220: c3d5 83bd f709 3e3e fd0d 98bd 4ced b4bd
00000230: 81f5 953e 2e85 573e 3c1b 603e 12d7 f2bd
00000240: f09d ecbc c78a 5abe f979 ebbd 5a25 1bbf
00000250: 489e 1f3d 5c2c ed3d bdc4 1ebe 4f1f 4fbe
00000260: 389e 993e ef95 14be a42b 97bc 8cb7 6a3e
00000270: c2b1 013e b799 b8bd abde e4bd 315e 113e
00000280: 20f3 0cbe 95b4 85bd 46c7 aa3d 1b66 af3e
00000290: 2fc2 14be 7142 0abe f9fa a5be 860c 193c
000002a0: c062 55be e63b 07be 1ae7 abbe 347d 663e
000002b0: b0fb 223d 2fbd 853d 021d d7bd 0f5b be3c
000002c0: 8eb9 9fbe 0dff 8dbd 2473 d93d 4a41 793d
000002d0: 78eb 883c 075b 9fbe 94e3 05be 4222 b4be
000002e0: a7a3 4f3e c249 8f3e ccb3 c7bd 82dd 73be
000002f0: 3c7f 0abe 9244 6d3d 7670 cb3d 85e6 b6bd
00000300: 058a 8cbe adf4 92bd 8791 02bc 60dc 4abe
00000310: a305 3bbe 1f43 dd3e 5808 bd3d b32f 403d
00000320: 4ada f1ba 1462 0e3e a476 f438 d489 bebb
00000330: 3ac5 a5be 1fab 843d 0263 78bd 6c72 81be
00000340: 36bf a7bd d24e 10be 2d6f 033e 36b8 c5be
00000350: 7953 f2bd e7c7 ee3c b201 8d3d 6dc9 b13c
00000360: d044 febc d4e2 1fbd 5153 8abe 3305 e53d
00000370: aecb 833e 8da1 4bbe ec1b c9bd dfc5 2cbe
00000380: b0a4 82bd 411d eb3d aa16 a4be 6b9f bebc
00000390: b336 a1bd 67c9 2e3e 72aa b1bc 7a33 4e3e
000003a0: 52c9 923e de7b 00be ceb0 0c3d 8995 04bc
000003b0: ca63 3a3d d2a7 173e cfac b5bc 973d 8c3d
000003c0: ad20 55be fbbf 363e 45b4 88bb 2f02 b1bb
000003d0: 9769 37be c448 e9bd 6a50 373d 2abb 3a3e
000003e0: bf17 2abc dade bcbb 1ff8 b83d 21d9 773c
000003f0: 7494 883d affd 93be 8632 c83e 2dba db3d
-0.29980278 -0.017689608 -0.009945534 -0.02560974 -0.00095326017 0.025398687 0.2992472 0.0790326
0.028986031 -0.068688385 -0.2964035 0.17402382 -0.09619144 -0.115773335 0.14069536 0.33119625
-0.2120238 -0.08574881 0.2596636 -0.024881426 0.088552415 -0.28521037 0.093135424 0.16334231
-0.04644964 -0.20187286 -0.21092658 0.2604839 -0.064156674 -0.07382386 0.057846215 0.06840156
-0.083532594 0.09475873 0.020035982 -0.053190242 0.17842296 -0.08301575 -0.11640494 -0.016754705
-0.108495705 -0.003772703 0.046778988 0.17510134 0.0751058 -0.20208551 -0.107297726 0.07889375
-0.37991625 0.09702676 -0.085202634 0.075699806 -0.029099334 0.2687803 -0.17178082 0.1947443
-0.5294016 -0.109164245 -0.3031489 -0.07914402 -0.23522629 -0.08378188 0.0068607368 -0.06732151
-0.032998737 0.0959157 -0.076213084 -0.3246837 0.09099358 0.17983869 -0.17725104 -0.13191703
-0.40483448 -0.014609713 0.34783456 -0.2579907 0.16354086 0.22237879 0.1914882 -0.0088041285
-0.02206755 -0.26507068 0.15749587 -0.31767288 0.053969122 0.06125888 -0.05981111 -0.033964537
-0.041489903 -0.00054142275 -0.21196836 -0.2990757 -0.005225369 0.044383273 0.2093738 -0.08159036
-0.26887813 0.04136239 -0.0017021135 -0.16286026 0.13051483 -0.046229366 -0.3482796 0.21559377
-0.07234755 -0.2553361 -0.08738778 -0.25645944 0.05365583 -0.40944389 0.0317752 0.25511143
-0.3069955 0.017958399 -0.23240067 -0.08153697 -0.16912992 -0.32170728 -0.20905134 -0.13864587
-0.43582964 -0.045813728 0.18076278 0.06783328 -0.08356393 0.1124083 0.095378876 -0.18828915
-0.08781382 -0.2853131 0.23766881 -0.09278806 0.11560034 -0.1075795 -0.3256315 0.25579327
-0.06437256 0.18558489 -0.07424543 -0.08834323 0.29288867 0.21046898 0.21885389 -0.11857428
-0.028883904 -0.21342002 -0.11497874 -0.6060387 0.03896931 0.115807265 -0.15504737 -0.20226787
0.30003524 -0.1451032 -0.018453427 0.2292158 0.12665465 -0.09013694 -0.11175283 0.14196087
-0.1376462 -0.06528584 0.0833879 0.34257588 -0.145272 -0.13501908 -0.3241804 0.009341365
-0.20838451 -0.13206443 -0.33574754 0.22508699 0.03979081 0.065302245 -0.1050358 0.02323678
-0.31196254 -0.06933413 0.106176645 0.06085328 0.016713843 -0.31124136 -0.13075095 -0.35182387
0.20277272 0.2798596 -0.097510904 -0.23814967 -0.13525099 0.057926722 0.099335596 -0.08930687
-0.2744905 -0.071755745 -0.007969267 -0.19810629 -0.18263869 0.43215272 0.09230107 0.04692049
-0.0018451896 0.13904601 0.00011656925 -0.0058147702 -0.32377034 0.06477951 -0.060641296 -0.2528261
-0.081907675 -0.14092568 0.12835379 -0.38617104 -0.118323274 0.029148055 0.06885089 0.021702493
-0.031038672 -0.03903468 -0.2701669 0.11182632 0.25741333 -0.19885845 -0.09819779 -0.16872357
-0.06379068 0.11480189 -0.3204854 -0.023269376 -0.07871761 0.17069016 -0.02168772 0.20136824
0.2866922 -0.12547252 0.0343483 -0.008092293 0.045505323 0.14810112 -0.022177128 0.06847685
-0.20813246 0.17846672 -0.0041718804 -0.0054018716 -0.17911373 -0.11390832 0.044754423 0.1823546
-0.010381638 -0.0057638707 0.090317 0.015127451 0.0666894 -0.28904483 0.39101046 0.107288696

line_stack.0.bias f4 [64]
00000000: 5f4d 123d e25e 953c 219d 5bbc 6347 8f3b
00000010: 61dd 2c3d b690 0bbd de3f 413d 24c5 253d
00000020: 5491 84bd 38bf 8bbd 50c1 c6bb e6a6 c9bc
00000030: 2bd3 f93c d66f 543d f082 743c 9343 6e3d
00000040: 6b6c 203d 6412 afbd 0be7 1bbd e986 b5bd
00000050: 3c9f ce3c 3d7c 7f3d d184 6fbd 05e9 62bd
00000060: cfcf 9c3c a96f 083d 831b 5f3d 7796 a73d
00000070: 9471 c83b fce6 c73a e5cf 39bd 27e6 993d
00000080: 32e3 c5bc 9a24 833c 0a9d 87bd 7ff3 a73d
00000090: 2be1 723c 7853 053c 2461 0ebd 49a3 97bd
000000a0: 4871 b73d ac12 7ebd 86e8 bf3c 4158 12bd
000000b0: 965e c4bd 0fd0 813d 7448 4d3d a625 363d
000000c0: aaee 89bc c882 9fbc 176b 13bd ca17 183d
000000d0: 9671 38bd 8054 2a3d ab94 373d 4072 2f3d
000000e0: aee3 973d b8e1 c93b d825 e3bc 427e 383d
000000f0: 6bd6 83bd 88e3 2c3e cc13 073e d419 61bd
0.035718318 0.01823372 -0.013404162 0.0043725236 0.04220331 -0.034073554 0.04718005 0.04047121
-0.06473032 -0.068235815 -0.006065525 -0.024615716 0.0304962 0.051864468 0.014923796 0.058169913
0.039165895 -0.085484296 -0.038062137 -0.08863623 0.025222413 0.062374342 -0.058476273 -0.055398006
0.01914206 0.033309612 0.054469597 0.08182996 0.006117055 0.0015251334 -0.04536428 0.07514601
-0.024156187 0.016008664 -0.0662175 0.0820074 0.014824192 0.008137576 -0.03476061 -0.07404191
0.089571536 -0.062029526 0.023426306 -0.035728697 -0.09588353 0.06338512 0.050117925 0.044469498
-0.016837437 -0.019471541 -0.0359908 0.037132062 -0.0450302 0.04158449 0.044819515 0.042833567
0.07416473 0.006160941 -0.027728006 0.045042284 -0.06437381 0.16883671 0.13191146 -0.054956272

line_stack.2.weight f4 [64, 64]
00000000: f839 c3bc 47d9 7bbe 4c54 1ebe 325a 4fbe
00000010: daa9 8abb 48d9 123d 96ea e73d f0a4 803c
00000020: eae6 d4bd 6a58 1abe 1df5 29bd 5ec8 a7bd
00000030: 8e13 5d3d c10d 953c 047f dc3d 5bf1 53be
00000040: 6f87 84bd 091d af3d dcc9 f83d 6cc3 cabd
00000050: c1a5 0d3c 015f 8f3d 8a4d 513d 7f6e e63d
00000060: 04f8 483e 9c45 873d ee87 263e f302 b83d
00000070: 8f1a 50bc e286 d73d d8e3 403d da4a cfbd
00000080: cf25 5ebe 1cdb e5bd f71c a63d 7a34 96bc
00000090: f9d9 48be 5ac1 613e 549b 283e 96dd 0d3d
000000a0: 41e8 b7be a361 5f3e 8308 e03d 9eae b73d
000000b0: d3bd 283e 2862 c5bc 19ca f63d fd14 973d
000000c0: 8805 fd3d ecce 2b3d 4443 6a3d b1f0 043e
000000d0: 7b29 013e c941 073e b6be 15be 2f14 60be
000000e0: 6776 a2bd 99f5 9bbd 1815 76be 8b6c 04bd
000000f0: 1843 d2bd 4a14 e23c 28ab 823e ce4b 77bb
00000100: 26d1 9cbd 7f00 b8bd 6e1b 0bbd b94c e03d
00000110: fa26 c1bc 4de9 3c3e 022a a9bb c182 4c3d
00000120: e3f2 3cbe aee1 15bd f717 db3c a7ed 583e
00000130: e531 28be fe6a b3bd 7d86 5f3e 7158 d6bd
00000140: 24eb 593e c71e 403e ee3d a3bd f755 903e
00000150: 0b66 4dbd ba15 02bd f1e7 943d 8a49 203c
00000160: af99 b23d 6caa 0a3d 8e22 9d3d 09cd 00be
00000170: 45ee a33e 97cd 80be 0074 b9bd 6e37 45bd
00000180: edd5 a5be fabb b3bd 6491 38bd b778 a6bd
00000190: 3c2b a33d a6ca 1f3e a0a8 88bb 0c43 bfbd
000001a0: a18d e0bd 531e 8dbd 79a6 1f3d 58fd d3bd
000001b0: 4a82 3a3d f5c8 ef3c ba68 a73d 7f51 43be
000001c0: 9963 19be 1775 b43b e7a8 f7bd 7906 1bbe
000001d0: 8848 1a3e 1d3d 17be 0d7a 94be 5c7a d7bd
000001e0: e99f 9abd d750 b7bd fed1 413e 5d23 4b3c
000001f0: 1c28 903d e78a d0bd fa2e 43be 4963 2cbd
00000200: 0b1f f23c 40da b03d 5b8f 90bd b5ad bcbc
00000210: 5fb1 873e 85f4 97be c928 373e 5392 383e
00000220: d516 d83d f1bd 81be a504 b23d acaf 24bd
00000230: e686 2c3e 73d0 a0bb f91e 28bd b63e b13e
00000240: 8121 003e 70f6 05be b47e 253c 781d 133e
00000250: 17dd 3f3e bfd2 5abc 5a38 d8bd 8919 78bd
00000260: e57c 373e a40c 82bd d59f 35be c868 cebb
00000270: 0a4e 7cbe 958a 5f3e 3c61 d13a edd2 0b3e
00000280: feda 8fbd 425d ba3e ff3c 1eba 59f6 4b3e
00000290: 11f4 333d a28f a83e e5e9 7a3c 9c2d f9bc
000002a0: cba1 91bd 78e9 22bd 58bd 233d 6389 803d
000002b0: 5496 e2bd 7ff3 69bd a508 b43d f28a 37be
000002c0: 8e65 8abd e06f edbd db71 86bd fe12 ea3d
000002d0: a0a3 373d b4fa 80bd c81e f43d 5f43 863a
000002e0: 9fe4 253d 1be6 073e 8ba5 203d 3dce 973d
000002f0: f707 e5bc 4dd0 823d 0e4f d4be f14a d2bd
00000300: 69b2 f23c 3ce8 d23d 5950 da3c aebd dfbc
00000310: bcca 12be e2b2 723e 0f3b 963d a727 75bd
00000320: 9935 e23c 8e33 72bd d8a8 03be fe24 29bd
00000330: 46be 063e 145a f3bd 5799 a83e 3f2b 7ebe
00000340: 96a7 4e3e dce9 b83d 40bc e33d d0d7 383d
00000350: 8ec1 7f3e 3e89 163a a17c aebc bffb 49be
00000360: 3804 bcbc 3715 1bbe f51d 4b3e 4f67 4d3e
00000370: 8e8f 193e 68f6 cf3d 4159 f0bc eda9 51be
00000380: 3929 5a3e d042 5ebd 437c b0bc 877f 47be
00000390: e38b b4bd a885 813e f377 933c b31a 99bd
000003a0: ac42 783d 2c1d 003e 21e6 163e b945 043c
000003b0: 331e be3d 103e 543e 5dc2 4abe 89e0 8c3d
000003c0: c3fb e43d 2245 17be 8650 443d c562 6a3e
000003d0: 36cc 5abe 0d5b e73d 4954 1dbb 1be7 bebd
000003e0: 6c40 213e c755 aebd 908f aa3d 6716 b9bd
000003f0: 98bd c6bd 5a2b 513e e83c a1bc 02b5 3a3e
-0.023831353 -0.24594603 -0.15461844 -0.2024925 -0.0042316737 0.035851747 0.113240406 0.015703648
-0.10395606 -0.1507279 -0.041493524 -0.08192514 0.053973727 0.018195035 0.10766414 -0.20697539
-0.064711444 0.0855046 0.121478766 -0.09900555 0.008645476 0.070005424 0.051099338 0.11251544
0.1962586 0.06605074 0.1626279 0.089849375 -0.012701645 0.10523774 0.04709229 -0.10121699
-0.2169411 -0.112234324 0.08110993 -0.01833557 -0.196144 0.22046414 0.16465503 0.03463515
-0.35919383 0.21814589 0.109391235 0.089688525 0.16478662 -0.024094656 0.12050266 0.0737705
0.123545706 0.041945383 0.057193056 0.12982441 0.1261348 0.13208689 -0.14623532 -0.218827
-0.0793274 -0.076152034 -0.24031484 -0.032330077 -0.10266703 0.027597565 0.25521207 -0.0037734392
-0.076570794 -0.089844696 -0.033961706 0.10952134 -0.023578156 0.18448372 -0.0051624784 0.049929384
-0.18452029 -0.036592178 0.026744826 0.21184407 -0.16425283 -0.087606415 0.21828647 -0.104660876
0.21281105 0.1876174 -0.079707965 0.28190586 -0.050146144 -0.031759 0.07270802 0.009783158
0.08720719 0.033853933 0.076726064 -0.12578215 0.32017723 -0.25156853 -0.09055328 -0.048148565
-0.32389775 -0.08776088 -0.04506053 -0.08128493 0.07967231 0.15604648 -0.0041704923 -0.0933896
-0.109645136 -0.068905495 0.03897712 -0.10351056 0.04553441 0.029270628 0.08174272 -0.19074057
-0.149794 0.0055071223 -0.120927624 -0.15139188 0.15066731 -0.14769407 -0.28999367 -0.10521385
-0.07550032 -0.08950966 0.18927762 0.012398568 0.070389 -0.101827435 -0.19060889 -0.042086873
0.029555818 0.08635378 -0.07058593 -0.023032049 0.2650251 -0.2967874 0.17886652 0.18024568
0.1055123 -0.25340226 0.08692292 -0.040206596 0.16848335 -0.0049076616 -0.041045163 0.34618157
0.1251278 -0.1308229 0.010101009 0.1436671 0.18736683 -0.01335591 -0.10557623 -0.060571227
0.17918737 -0.06350067 -0.17736752 -0.006299112 -0.24639145 0.21830209 0.0015974413 0.1365468
-0.07024191 0.36399275 -0.0006036311 0.19918193 0.04393393 0.32922083 0.015314554 -0.030417256
-0.07110938 -0.039773434 0.039975494 0.062762044 -0.11063829 -0.05711698 0.08790711 -0.17924097
-0.06757651 -0.11593604 -0.06564685 0.11429404 0.04483378 -0.06297818 0.119199336 0.0010243467
0.040501233 0.13271372 0.039220374 0.07412384 -0.0279579 0.063873865 -0.41466564 -0.102682
0.029626088 0.102982014 0.02664964 -0.027312126 -0.1433515 0.23701051 0.07335483 -0.05985227
0.027613448 -0.059131198 -0.12857378 -0.041295044 0.13158521 -0.118824154 0.3292949 -0.24821185
0.20181116 0.0902898 0.1111989 0.04512769 0.24976179 0.00057424966 -0.021299662 -0.1972494
-0.02295123 -0.15144812 0.19835646 0.2005894 0.14996168 0.1015442 -0.029339435 -0.20474978
0.21304788 -0.054262936 -0.021543628 -0.19482242 -0.08815744 0.25297284 0.018001532 -0.074757956
0.06061046 0.12511128 0.14736225 0.008073264 0.09283104 0.207268 -0.19800706 0.06878764
0.11180832 -0.14772466 0.047928356 0.2288924 -0.21366963 0.112966634 -0.0024006537 -0.093214236
0.15747231 -0.085124545 0.083281636 -0.09037476 -0.09704131 0.20426694 -0.019682363 0.18233112

line_stack.2.bias f4 [64]
00000000: 473c 303c 93b8 86bc 7390 e73c b199 8bbc
00000010: d8bb 3cbc df42 38bc a9fa f0bb 4082 82bc
00000020: c53a 97bc e4bd 83bc 478a bc3b f4e6 8ebc
00000030: 29b0 7c3c 8d1e e73c 49d3 dcbb bdee 893c
00000040: c15f 0b3c 0143 fa3b 2a47 8a3c 60e2 42ba
00000050: fe0b b73c a21f 513c 73b5 7d3c 91ac 8f3c
00000060: a2a4 0cbc 83a9 1b3c 7f5f d9bb 92f5 43bc
00000070: dbb0 ae3c 4cde 813c ede7 91bc 0a93 243c
00000080: 9052 c63c 3e4c a43c 3c97 bfbb e173 493c
00000090: 704e bdbc 287b 863c ac36 18bc 374c 6ebc
000000a0: d2cf 413c 55c6 b63b 8f38 8a3c db9b fe3c
000000b0: f3dd ed3c ecf9 233c cbdd 253c 414b 183c
000000c0: 299e bd3c 8798 873c a496 47bc d649 91bc
000000d0: 4575 9ebc 1b14 22bc 81f5 9cbc 5cc8 cd3c
000000e0: b479 0d3c 2d0c 223c 39ec 513c dc74 5e3c
000000f0: f49b 883c 682d 94bc 5b26 293c b8d2 733c
0.010756559 -0.016445434 0.028267121 -0.01704106 -0.011519395 -0.011246412 -0.0073541 -0.015931249
-0.01846064 -0.016081758 0.0057537886 -0.017444111 0.015422859 0.02821281 -0.0067390543 0.016837472
0.008506716 0.007637382 0.016879637 -0.0007434245 0.022344586 0.0127638895 0.015485155 0.01753834
-0.008584173 0.009500864 -0.0066336985 -0.011960404 0.021324566 0.01585307 -0.017810786 0.0100448225
0.02420929 0.020055886 -0.005846886 0.012295694 -0.023108691 0.016416147 -0.009290379 -0.014544538
0.011829333 0.0055778422 0.016872672 0.031080177 0.029036498 0.0100083165 0.01012368 0.009295286
0.023146706 0.016552223 -0.012181912 -0.017735403 -0.019343028 -0.009892489 -0.019160034 0.025119953
0.008634973 0.009890598 0.0128126675 0.013577666 0.016675927 -0.018088058 0.010324086 0.014881782

line_stack.4.weight f4 [1, 64]
00000000: 0ed4 52bb ffde 3f3e 92ab 29bc 2b31 483e
00000010: 9934 0b3e 5933 f03c ebc7 153d 963c ff3d
00000020: 8a92 043d 2e6d 9c3e aff9 57be b540 783e
00000030: f2cb d9bd 9531 9dbd 7b13 e13d d604 c7be
00000040: fef5 32be fde3 10be 86cf 1cbd dde1 d9bd
00000050: efa6 11be 43a6 4bbe d08f 9cbd 8c19 3abe
00000060: b4cc 313e 0e2f 5fbe 37e0 883e 12b0 343e
00000070: 793b 9fbe 3f6b ffbd 3db0 8c3e b0a6 ccbd
00000080: 16a6 6fbe 4db6 67bd e0d6 963e 2f46 31bd
00000090: a593 4b3e 2c14 86be db73 f23d 01b8 293e
000000a0: 836b c1be 54bb b33c 5282 e7bd edcc 47be
000000b0: 9385 0dbd 5928 97bc 4ac5 b2bc dbeb 72bd
000000c0: 0f56 e1bd 2598 06bd 1cc7 d13e 8688 9e3d
000000d0: ef9f a73e 7ccf c93d ca33 bf3d 3380 c1be
000000e0: e13e 97bd 8de6 edbd e09d 87bd 7c2f bdbd
000000f0: b188 d5bb f9d6 0b3e 6160 cabc c527 84be
-0.0032169851 0.1873741 -0.010355847 0.19550006 0.13594283 0.02932136 0.03656761 0.12462728
0.032366313 0.30552047 -0.2109134 0.24243434 -0.106346026 -0.07675473 0.10990044 -0.38870877
-0.17476651 -0.1414947 -0.038283847 -0.10638783 -0.14223836 -0.19887643 -0.076446176 -0.18173808
0.17363244 -0.21795294 0.26733562 0.1764529 -0.31100062 -0.124716274 0.2747821 -0.099927306
-0.234032 -0.05657034 0.29460812 -0.043279823 0.1988054 -0.26187265 0.11838504 0.16574098
-0.37777337 0.021939911 -0.113041535 -0.19511767 -0.034551214 -0.018451856 -0.02182259 -0.05930696
-0.110027425 -0.03285994 0.4097222 0.077408835 0.32739207 0.09854028 0.0933605 -0.3779312
-0.0738504 -0.1161624 -0.06621909 -0.092375726 -0.006516539 0.13656224 -0.02470416 -0.25811592
