Double_pendulum/models/model.pt (torch, 3444 bytes, 5 tensors)

line_stack.0.weight f4 [12, 4]
-0.088903666 -0.12915824 -0.48503345 0.27134842 0.72934246 0.0445904 -0.003806474 1.2219316
0.63435256 0.24300885 -0.33672658 -0.27383026 -0.5708372 -0.40856797 -0.58450943 0.090583324
-0.24732012 -0.53411734 0.3222796 0.087653644 0.20435597 -0.17244363 0.50183743 0.6617425
0.17151664 0.005939038 -0.68503636 -0.50211865 -0.76430607 -0.4346963 -0.07264377 -0.030345818
0.027017094 -0.24526015 0.6033914 0.40764982 0.01056525 -0.33323577 -0.54959327 -0.10313211
-0.09699233 -0.045536537 -0.05813876 -0.121690504 0.39686573 0.116361305 -0.9301457 0.048038244
00000000: 2013 b6bd 0f42 04be 4e56 f8be 2eee 8a3e
00000010: 30b6 3a3f 6ca4 363d 0976 79bb 4168 9c3f
00000020: ee64 223f 50d7 783e 6d67 acbe 7b33 8cbe
00000030: 6322 12bf d22f d1be 69a2 15bf c083 b93d
00000040: 7c41 7dbe eabb 08bf d501 a53e c183 b33d
00000050: b142 513e 1095 30be 6b78 003f f567 293f
00000060: 0fa2 2f3e 439c c23b 8b5e 2fbf d98a 00bf
00000070: 90a9 43bf 8390 debe 42c6 94bd cb97 f8bc
00000080: f452 dd3c 7a25 7bbe dc77 1a3f 7ab7 d03e
00000090: df19 2d3c e19d aabe 25b2 0cbf ed36 d3bd
000000a0: eaa3 c6bd 8584 3abd e922 6ebd df38 f9bd
000000b0: fc31 cb3e d64e ee3d 071e 6ebf c0c3 443d

line_stack.0.bias f4 [12]
-0.005710306 0.1569836 -0.0637016 -0.025470613 0.13545164 0.09038854 0.009819489 0.22866745
0.020726535 -0.09207868 0.12727155 -0.13658565
00000000: 851d bbbb 4fc0 203e fc75 82bd bfa7 d0bc
00000010: d6b3 0a3e a01d b93d ece1 203c cd27 6a3e
00000020: b2ca a93c bf93 bcbd 7953 023e 1cdd 0bbe

line_stack.2.weight f4 [12, 12]
-0.4101079 0.076031744 0.2515296 0.32237685 -0.09297531 0.0039211083 0.23291971 -0.021653946
0.58799696 0.26787484 0.21169014 -0.25406837 -0.3024089 0.31110153 -0.115627766 -0.040638007
-0.19617368 0.6908686 0.27510905 0.4440308 0.020587659 0.04316071 -0.29553562 0.10614623
-0.16734646 -0.20111936 -0.26518214 -0.24239421 0.0021270558 0.006186593 -0.033735104 0.21434814
0.16265094 0.0042375233 0.01375572 0.00456309 -0.024211194 0.034585964 -0.10265479 -0.059629712
0.08591226 0.25835106 0.11719321 -0.29234052 -0.08526954 0.012286579 -0.44249547 -0.11935665
0.5204354 0.21994159 -0.18695216 -0.21352045 -0.079473816 0.5044277 0.5866185 -0.24623884
0.26938286 0.030625697 0.81711376 -0.04922097 0.28786582 0.1243653 0.062016007 -0.31812432
0.55986536 -0.3257093 0.014060982 -0.16363825 0.27535817 -0.17546965 0.17744943 -0.0064618904
-0.4119274 -0.07919006 0.3043612 -0.85497487 -0.2299301 -0.23933966 0.5347165 -0.108593695
-0.005303485 0.17155416 -0.11085345 -0.23522949 0.3633453 -0.26250094 0.05309091 -0.034894213
0.4257953 0.28279188 -0.2146654 0.32174835 -0.27897874 -0.44241282 0.25664163 0.04396314
0.21502526 -0.18725239 0.5238428 0.13540815 -0.012136718 -0.07757191 0.28215384 -0.10953808
-0.043223906 0.2603766 0.19142865 0.044213347 0.14706412 0.056390934 0.21677855 -0.5178406
0.053578053 0.064478 0.16950192 -0.068824925 0.4151867 -0.23679103 -0.73155236 -0.18535244
0.07133555 0.14870228 0.38889775 -0.058777884 0.3061448 0.2459086 0.40841433 -0.5134995
0.35543212 -0.4521571 0.10749379 -0.22383715 0.023805736 -0.024736822 0.29935732 -0.07190837
0.039590605 0.35044205 -0.5450053 0.04504259 0.20647216 -0.31482983 0.19037047 0.19614792
00000000: aaf9 d1be 88b6 9b3d 7dc8 803e 940e a53e
00000010: d769 bebd a47c 803b 8182 6e3e 9e63 b1bc
00000020: f886 163f e426 893e 4dc5 583e 4015 82be
00000030: 57d5 9abe b348 9f3e 40ce ecbd 0a74 26bd
00000040: c1e1 48be c4dc 303f 18db 8c3e 0158 e33e
00000050: 73a7 a83c 49c9 303d 7250 97be 3263 d93d
00000060: df5c 2bbe 3cf2 4dbe f4c5 87be 3036 78be
00000070: 1366 0b3b e7b8 ca3b d22d 0abd 147e 5b3e
00000080: f88d 263e ecda 8a3b ac5f 613c f985 953b
00000090: 8e56 c6bc 03aa 0d3d ad3c d2bd 493e 74bd
000000a0: c4f2 af3d 9746 843e fe02 f03d a8ad 95be
000000b0: cca1 aebd a64d 493c c48e e2be 4271 f4bd
000000c0: 413b 053f 5e38 613e 6370 3fbe 1ba5 5abe
000000d0: 2bc3 a2bd 2c22 013f a12c 163f 0926 7cbe
000000e0: 8dec 893e bee2 fa3c 5e2e 513f ee9b 49bd
000000f0: 2663 933e 3cb3 fe3d 7f04 7e3d 31e1 a2be
00000100: 5653 0f3f 5fc3 a6be 0860 663c c990 27be
00000110: bffb 8c3e 51ae 33be 4eb5 353e 44be d3bb
00000120: 26e8 d2be 662e a2bd 3bd5 9b3e a2df 5abf
00000130: cc72 6bbe 7515 75be 2ee3 083f 5f66 debd
00000140: dbc8 adbb e5ab 2f3e 2207 e3bd 00e0 70be
00000150: 6508 ba3e 8666 86be db75 593d 3ced 0ebd
00000160: d701 da3e 19ca 903e 3fd1 5bbe 33bc a43e
00000170: 4dd6 8ebe ef83 e2be 8866 833e b212 343d
00000180: 952f 5c3e 17bf 3fbe 901a 063f 6fa8 0a3e
00000190: 16d9 46bc 06de 9ebd 7876 903e 8055 e0bd
000001a0: 8d0b 31bd 1550 853e df05 443e 0e19 353d
000001b0: fa97 163e 2efa 663d 32fb 5d3e 3491 04bf
000001c0: a974 5b3d 0b0d 843d e991 2d3e 15f4 8cbd
000001d0: 5a93 d43e 5979 72be 0447 3bbf 08cd 3dbe
000001e0: 5f18 923d 6945 183e 9b1d c73e 14c1 70bd
000001f0: 03bf 9c3e 77cf 7b3e af1b d13e b474 03bf
00000200: 33fb b53e 2381 e7be b425 dc3d 9135 65be
00000210: 3f04 c33c e0a4 cabc 5d45 993e b244 93bd
00000220: c229 223d 246d b33e 7885 0bbf 947e 383d
00000230: 706d 533e 6031 a1be 7af0 423e 00db 483e

line_stack.2.bias f4 [12]
-0.019482652 0.0037849436 0.017420143 0.007282143 -0.01614693 -0.012905983 0.04339745 -0.006636329
-0.036538124 0.0734809 -0.007485549 0.026328953
00000000: 159a 9fbc d10c 783b b0b4 8e3c 0b9f ee3b
00000010: 9146 84bc 9e73 53bc 86c1 313d 9075 d9bb
00000020: 00a9 15bd 277d 963d 5649 f5bb d1af d73c

line_stack.4.weight f4 [1, 12]
-0.53583395 -0.358161 0.1544683 0.57291293 -0.7472627 -0.30171674 0.50399387 -0.34075856
-0.024909921 -0.3198425 0.17374147 0.14936467
00000000: 6a2c 09bf e160 b7be f02c 1e3e 6caa 123f
00000010: 9c4c 3fbf 9e7a 9abe be05 013f e877 aebe
00000020: e40f ccbc 65c2 a3be 49e9 313e 0df3 183e
