Double_pendulum/models/model.pt (torch, 3444 bytes, 5 tensors)

line_stack.0.weight f4 [12, 4]
0	0xbf187d58	-0.5956626
1	0xbbc3ac83	-0.0059714927
2	0x3e8b83f7	0.2724912
3	0x3e856ead	0.26061
4	0x3e0448a1	0.1291833
5	0x3e15e7df	0.14639233
6	0xbe04f4aa	-0.12983957
7	0x3d60c420	0.05487454
8	0x3f804271	1.0020276
9	0x3eabc3f4	0.33547938
10	0x3e109a41	0.14121343
11	0x3d826d36	0.063684866
12	0xbe09cfb5	-0.1345814
13	0xbd3321d1	-0.04373342
14	0xbec0c79f	-0.376523
15	0x3e86bcd4	0.2631594
16	0x3d6d0021	0.05786145
17	0xbf49b8a3	-0.7879736
18	0xbec6e2f9	-0.3884504
19	0x3eddc824	0.43316758
20	0x3f1331f0	0.57498074
21	0xbe36be3c	-0.17846006
22	0xbd68b17d	-0.05680989
23	0x3e9a7acc	0.30171812
24	0x3f44b057	0.76831573
25	0xbeafdd30	-0.3434844
26	0xbe2742c6	-0.16334066
27	0xbf025826	-0.50915754
28	0x3ee01f53	0.43773898
29	0x3e898676	0.26860398
30	0x3e4d2077	0.20031916
31	0xbe2ae128	-0.16687453
32	0xbe7bb120	-0.24579287
33	0x3e13b9fa	0.14426413
34	0x3dd10fd8	0.102081
35	0xbf157081	-0.5837479
36	0x3bd47134	0.0064832214
37	0x3ea574e3	0.3231574
38	0xbf182f6b	-0.59447354
39	0x3d79405e	0.0608524
40	0xbe779162	-0.24176553
41	0xbf085d51	-0.5326739
42	0x3e8d2566	0.27567595
43	0x3dddbcc7	0.10827022
44	0x3ebc198e	0.36738247
45	0xbcf4acfc	-0.029867642
46	0x3f014e93	0.5051052
47	0xbee6f729	-0.45110443

line_stack.0.bias f4 [12]
0	0x3e39b0c2	0.18133834
1	0xbe5a6be0	-0.21330214
2	0xbed42168	-0.41431737
3	0x3e188202	0.14893344
4	0x3eb89a04	0.36055005
5	0xbd1d6765	-0.038428683
6	0xbc720297	-0.014771125
7	0xbe8f5f72	-0.28002506
8	0xbca27f4c	-0.01983609
9	0x3db4be6c	0.088253826
10	0x3d0f16dd	0.034933913
11	0xbe10be60	-0.14135122

line_stack.2.weight f4 [12, 12]
0	0xbe1d4e3a	-0.15361872
1	0x3e69d2cc	0.22834319
2	0xbf086320	-0.5327625
3	0x3d8c4488	0.06849009
4	0x3ed6dcf3	0.41965446
5	0xbde17445	-0.11008505
6	0x3eb43590	0.35197115
7	0xbf20d206	-0.6282047
8	0xbe3703ad	-0.17872496
9	0x3e8c34a3	0.2738391
10	0xbddb895d	-0.10719559
11	0xbe154581	-0.14577295
12	0xbdc37d33	-0.09545364
13	0x3ea6c0d2	0.32568985
14	0xbd7f7ae5	-0.06237306
15	0xbe739db3	-0.23790626
16	0xbf06167f	-0.52378076
17	0xbedde527	-0.43338892
18	0x3e59d013	0.2127078
19	0x3e282856	0.16421637
20	0xbec53c45	-0.38522545
21	0xbe088c8e	-0.13334867
22	0xbec04146	-0.375498
23	0x3ead0554	0.33793128
24	0x3d911037	0.07083171
25	0xbcdc5f62	-0.02690095
26	0x3df13526	0.117777154
27	0x3e842fbb	0.25817665
28	0xbd48fc0f	-0.049068507
29	0x3dbb39c2	0.09141876
30	0x3d852105	0.065004386
31	0xbe0a2bb6	-0.13493237
32	0x3f47c0aa	0.7802836
33	0xbf137395	-0.5759824
34	0xbeac67c9	-0.33672932
35	0x3dec639f	0.11542439
36	0x3dcef101	0.101045616
37	0xbedef44b	-0.43545756
38	0xbed86ab6	-0.42268914
39	0xbd9fe278	-0.07806867
40	0xbe211deb	-0.15734069
41	0x3f231bdd	0.6371439
42	0xbd863da3	-0.06554725
43	0x3d744193	0.05963285
44	0x3e352fcc	0.17694014
45	0x3e158ae5	0.14603765
46	0xbf18ea76	-0.5973276
47	0xbbe85fe4	-0.007091509
48	0xbcdd8373	-0.027040219
49	0x3d6760dc	0.056488857
50	0x3e3368ec	0.17520493
51	0xbe32d401	-0.17463686
52	0xbf07a614	-0.5298779
53	0x3f5ebf41	0.8701058
54	0x3e1dfb17	0.15427814
55	0x3eec13cc	0.46108854
56	0x3e40e64b	0.1883785
57	0x3f0aa8aa	0.5416361
58	0xbe729204	-0.23688513
59	0x3e9f0667	0.31059572
60	0x3ee03859	0.4379299
61	0xbe2a7232	-0.16645125
62	0x3c739dd4	0.014869172
63	0xbf5dc863	-0.8663389
64	0x3e89ed4f	0.26938865
65	0xbe4c1750	-0.19930768
66	0xbdb6c359	-0.08923978
67	0xbe1048f2	-0.14090326
68	0x3d6796e0	0.05654037
69	0x3e4ba8ab	0.1988856
70	0xbe8e53fe	-0.27798456
71	0x3e6124f9	0.2198676
72	0xbd8454d2	-0.06461491
73	0x3ecde2fb	0.40212235
74	0xbd92173c	-0.07133338
75	0xbe801469	-0.25015572
76	0xbe120d30	-0.14262843
77	0xbdcdcfb1	-0.100493796
78	0xbdcf8668	-0.10133058
79	0xbe6215b3	-0.2207859
80	0xbe8020a6	-0.2502491
81	0xbe60e763	-0.21963267
82	0xbca096d5	-0.019603172
83	0xbeafe27e	-0.34352487
84	0x3d194506	0.03741934
85	0x3f351fd7	0.7075171
86	0x3e914d29	0.2837918
87	0xbe6edb70	-0.23325896
88	0x3f334588	0.7002797
89	0x3dbdd1a6	0.09268503
90	0x3e7ab0fc	0.24481577
91	0xbeaae7c5	-0.3337995
92	0xbe98ebb2	-0.2986732
93	0xbdb9382b	-0.09043916
94	0xbe902a06	-0.2815706
95	0x3e3dae10	0.18523431
96	0x3d9a5296	0.07535283
97	0x3eb22d13	0.34800014
98	0x3e07af9c	0.13250583
99	0x3d8610fe	0.0654621
100	0x3eaf8888	0.34283853
101	0xbf15e806	-0.58557165
102	0xbca389d0	-0.019963175
103	0x3e2aeef9	0.16692723
104	0xbed4912f	-0.41517016
105	0xbca87092	-0.02056149
106	0xbe2f2032	-0.17102125
107	0x3ea10573	0.3144947
108	0x3ef1c26e	0.4721865
109	0xbe4079d8	-0.1879648
110	0xbd8eb9a2	-0.069690004
111	0x3e301335	0.17194827
112	0xbed1f0a1	-0.41003898
113	0xbcb6b07d	-0.022300953
114	0x3ee0acd7	0.43881866
115	0xbf057e44	-0.5214579
116	0x3d12b65f	0.035818454
117	0xbeedc3f8	-0.46438575
118	0xbe3dfc70	-0.18553329
119	0xbe9d88cd	-0.30768433
120	0x3dddf3de	0.108375296
121	0xbf74dacd	-0.95646363
122	0xbe33f5f3	-0.17574291
123	0x3e1e9f2f	0.15490411
124	0x3eeb35e1	0.45939544
125	0x3f0a226c	0.53958774
126	0xbe09da53	-0.1346219
127	0xbd506b6b	-0.05088369
128	0x3e3768b6	0.17911038
129	0xbdba163c	-0.09086272
130	0x3ea6a102	0.32544714
131	0x3e3046ab	0.17214458
132	0xbef701b7	-0.48243496
133	0x3ede3bed	0.43405095
134	0x3ea1f9cf	0.316359
135	0xbedae2db	-0.42751202
136	0x3d3ef6a5	0.046621937
137	0xbe75ea18	-0.24015081
138	0x3cbdd0f3	0.023170924
139	0xbf04dcca	-0.518994
140	0xbe6d6b6a	-0.23185506
141	0xbe69ab55	-0.22819264
142	0x3eb504bc	0.35355175
143	0x3f819b53	1.0125526

line_stack.2.bias f4 [12]
0	0xbd8c681d	-0.068557955
1	0x3a656270	0.0008750325
2	0x3b66a67b	0.0035194445
3	0xbcf5bafd	-0.02999639
4	0xbd5326e2	-0.051550753
5	0xb8fbff69	-0.000120161865
6	0xbc8dc5f9	-0.017306315
7	0xbd865054	-0.0655829
8	0xbcb5dcfd	-0.022200102
9	0x3ce45ad2	0.027875338
10	0x3c3cc089	0.011520513
11	0xbd6ccbaa	-0.057811417

line_stack.4.weight f4 [1, 12]
0	0xbf06098c	-0.5235832
1	0xbde4f28d	-0.111790754
2	0x3eaa708a	0.33288985
3	0xbebef461	-0.3729582
4	0x3e32bdea	0.17455259
5	0x3e1bf65e	0.152307
6	0x3f5c61b6	0.86086595
7	0x3f92d471	1.1471082
8	0x3f827677	1.0192403
9	0xbf1a28fb	-0.6021878
10	0xbd73e4ab	-0.059544247
11	0x3f6c4a03	0.9230043
