Double_pendulum/models/model.pt (torch, 3444 bytes, 5 tensors)

line_stack.0.weight f4 [12, 4]
000000 74 7d 3c bd ec 64 07 bf 6c 93 18 bd 68 e9 2a 3f
       -0.04601808 -0.5288837 -0.037249967 0.667624
000010 c0 97 9c 3e 92 ec 84 be 47 70 1c 3d af 82 14 be
       0.30584526 -0.2596174 0.038193014 -0.14502977
000020 d5 62 1a bf 59 aa 04 3f 79 09 ae 3e 69 ff 41 3d
       -0.60307056 0.5182243 0.33991602 0.04736272
000030 e7 34 2a 3f 2f ff ea be 92 f4 a1 3d 6b d7 0e bf
       0.6648697 -0.45897815 0.07907976 -0.5579745
000040 fc 80 07 3f c3 a6 92 3d 01 d1 d7 3e bb dc 33 bf
       0.5293119 0.071607135 0.42151645 -0.7025868
000050 d5 26 0c 3e 96 32 3a be d3 fc c6 3e 34 4d 60 3e
       0.13686688 -0.1818336 0.38864765 0.2190445
000060 26 53 a7 bd 64 24 77 3e c2 54 aa be 58 b4 d6 be
       -0.08170156 0.24134976 -0.3326779 -0.41934466
000070 89 15 39 3e 81 b1 0c be 03 64 68 3c d0 d4 05 3f
       0.18074621 -0.13739587 0.014184001 0.5227785
000080 0a 81 fd 3e 69 e4 86 3e a7 a7 d9 3c 82 0a 8e 3e
       0.49512511 0.26346138 0.0265692 0.27742392
000090 24 7c 31 3e c3 7a 18 3d d2 50 9a 3d 75 5b 8a bb
       0.17332512 0.03722645 0.075349465 -0.0042223283
0000a0 04 05 b1 3d 56 2f 1a 3f 8b 5c 11 3e b5 9e 80 3d
       0.08643535 0.6022848 0.14195459 0.06280271
0000b0 00 be 1e 3e ab d7 19 3e a5 a9 05 bf c0 29 24 3e
       0.15502167 0.15023677 -0.5221198 0.16031551

line_stack.0.bias f4 [12]
000000 47 12 f6 bb 23 de 1b 3c b2 16 21 3c 98 fe 03 3c
       -0.007509503 0.009513411 0.009832071 0.008056305
000010 0a c2 1d 3c 36 9b 1a 3c a4 3c 05 3c 01 e5 1f 3c
       0.009628782 0.009436419 0.008132134 0.009759189
000020 dc 10 2e 3c b1 6f 1d 3c e8 65 1f bc a7 d4 19 bc
       0.010624137 0.009609149 -0.009728886 -0.009389079

line_stack.2.weight f4 [12, 12]
000000 e4 35 e9 be d2 29 3e 3f 5f 4a 29 be b3 1b 3c bd
       -0.45548928 0.7428256 -0.16532277 -0.045924854
000010 0a b8 1d bf a3 57 77 be 1a 2f 4a bd c5 6b 29 3e
       -0.61608946 -0.24154525 -0.049361326 0.16545017
000020 d2 bf b2 3d 79 71 1f bf 5f 39 68 be 2b 11 17 bc
       0.08727993 -0.6228252 -0.22678135 -0.009220402
000030 66 f9 85 3e b9 64 3d be e2 89 5d 3e 0e 34 30 3e
       0.26166838 -0.18495454 0.2163463 0.17207357
000040 cd ef da be ce 5c 3e 3e 2a 7f d6 3d c8 5b a7 3e
       -0.42761078 0.1859009 0.10473473 0.3268721
000050 5f f5 cc 3d 0c c9 c2 3e 8c 80 20 3f a7 51 82 bd
       0.10007738 0.38044012 0.62696147 -0.0636323
000060 53 a8 e5 be 25 6c 43 be 37 5e c6 bd 17 d9 ce be
       -0.44854984 -0.19084223 -0.09685939 -0.404
000070 ad b9 0d 3e f1 ce 88 bd a8 0a 06 3f 42 50 45 be
       0.13840361 -0.06680096 0.5236001 -0.19268897
000080 f4 fa 5a 3e 0c 3c a7 3e de 5b 19 3f 25 7c b9 be
       0.21384794 0.32663 0.59905803 -0.36227527
000090 32 34 1a 3d 70 9b d9 be 27 b4 81 3e 6b 9d f3 3e
       0.037647434 -0.42501402 0.25332758 0.47581038
0000a0 8c 3e 5d be ef de 87 3e 71 71 dc 3e cb 46 46 3d
       -0.21605891 0.26537272 0.430553 0.048407357
0000b0 44 11 08 3f 19 e5 1e 3e d2 fe d2 be 3f d1 37 be
       0.53151345 0.15517081 -0.41210037 -0.17950915
0000c0 55 e2 b9 bd 9c d3 d8 be d8 c4 ca bb 78 c0 f7 bd
       -0.090763725 -0.42348945 -0.0061880164 -0.120972574
0000d0 02 3d ae 3d 6a aa 8a 3e d9 92 2d bd b2 b8 d4 be
       0.0850773 0.2708314 -0.042376373 -0.4154716
0000e0 9d 63 62 3e be 65 24 3e 9f bd a9 3d 7e 71 c5 3e
       0.22108312 0.16054437 0.082881205 0.3856315
0000f0 3f 79 fc 3d 1d 63 b2 bd cd 27 70 be 4f a0 a7 3c
       0.12327813 -0.087103106 -0.23452683 0.020462183
000100 e3 87 48 3f bd 26 37 be 78 52 07 bc ad c4 33 3e
       0.78332347 -0.17885871 -0.008259408 0.17555495
000110 19 54 1c 3e c5 12 9d bc 75 b6 b1 bd 3a d1 95 be
       0.15266456 -0.01917399 -0.08677379 -0.2926119
000120 b1 15 0d 3e 5b 40 66 be af 9b d8 be 99 6a 06 3d
       0.13777806 -0.22485487 -0.42306277 0.032816503
000130 04 a2 e4 3c 39 55 5c be fb 87 97 3b 50 12 57 be
       0.027909286 -0.21516885 0.0046243644 -0.2100308
000140 87 8f a3 bd b4 ab 09 3d c0 a0 99 3e 09 06 75 be
       -0.0798636 0.033611014 0.30005455 -0.23928083
000150 8f b7 05 bf b7 2b fe bd 4e 5e 5c 3d 3d 1c 87 be
       -0.52233213 -0.12410682 0.053800873 -0.26388732
000160 d6 21 f5 bb 05 2e ad 3e 0d 7f e3 be 78 34 ed 3e
       -0.00748084 0.33824173 -0.4443287 0.46329093
000170 05 21 19 bf f7 6a 95 3e 61 09 c7 3e b0 c6 58 be
       -0.5981601 0.2918317 0.38874343 -0.21169543
000180 d4 3d ba be ea 1d c1 3e 3a 83 4a 3e de 10 47 3e
       -0.36375296 0.37718135 0.19776621 0.19440028
000190 ba 5d 0c bf 3f 17 ca 3e 11 75 ae 3e fa e6 73 bd
       -0.54830515 0.3947086 0.3407369 -0.05954645
0001a0 ac 69 8f 3e 8d 64 a6 3d 9d e7 94 3d 83 fe c0 be
       0.2801031 0.08124647 0.07270739 -0.37694177
0001b0 4e ac b6 3e b3 9b ee be f9 bd 94 be 7d ee 98 be
       0.35678333 -0.46603164 -0.29051188 -0.29869452
0001c0 37 7d 3e be 20 83 3a 3e 52 7f d7 b8 23 52 b0 be
       -0.18602453 0.18214083 -0.00010275714 -0.34437665
0001d0 e2 01 8b be a4 88 ce be d3 b0 a0 be 6a d9 95 3e
       -0.27149874 -0.40338624 -0.31384906 0.29267436
0001e0 70 62 98 be 63 c4 04 3e 85 ce 76 be f4 e8 94 3e
       -0.29762602 0.1296554 -0.24102218 0.2908398
0001f0 7f 90 bf 3e c5 8f 8b 3e 29 8e d8 3e a7 f7 c9 be
       0.3741493 0.27258125 0.4229596 -0.39446756
000200 3d f1 7a bd c9 35 83 be 9c 96 ac 3c 5d e8 ba be
       -0.06126522 -0.25626972 0.02106791 -0.36505404
000210 c7 6e 8d bd 56 a0 8f be a5 a1 9a be e3 7d 45 3e
       -0.06905895 -0.28052014 -0.3020145 0.19286303
000220 31 92 97 be 27 cf d1 be 96 83 f4 bd 53 cc 13 bf
       -0.29603723 -0.40978357 -0.119391605 -0.5773365
000230 a8 5a 3f 3e 3a ea 08 bf 97 33 3c 3f 4d 63 41 be
       0.18686926 -0.534824 0.7351622 -0.18885536

line_stack.2.bias f4 [12]
000000 81 62 1d bc 11 f0 1e bc 11 cf 15 bc a3 d4 19 3c
       -0.009606005 -0.009700791 -0.009143607 0.009389075
000010 64 37 1b bc c4 05 1c 3c 72 9a 18 bc 59 18 1b 3c
       -0.009473655 0.009522859 -0.009314166 0.009466254
000020 18 54 17 3c 00 4a 0a 3c e4 d9 1e bc c7 bc 17 bc
       0.009236358 0.008440495 -0.009695504 -0.009261317

line_stack.4.weight f4 [1, 12]
000000 25 ab 70 3d a6 34 a7 3e 57 96 54 3e 7f f3 f6 bd
       0.058756966 0.32657355 0.20760475 -0.12058162
000010 ce c6 89 3e c8 8e 05 bf 1e de 26 3e 76 83 be bd
       0.26909488 -0.5217099 0.16295668 -0.09302418
000020 a0 0f 1a bf b2 f3 7c bc 8d 62 07 3f 33 cf dc 3e
       -0.6018009 -0.015438961 0.5288475 0.4312683
