Double_pendulum/models/model.pt (torch, 3444 bytes, 5 tensors)

line_stack.0.weight f4 [12, 4]
000000 3e 81 29 3e bb c4 9d bc dc b9 63 be ee 10 77 3e
       0.16553208 -0.019258847 -0.22238868 0.24127552
000010 43 e5 0f 3f 57 77 6b bd 9c d7 4b bf a7 6d 08 be
       0.562092 -0.05748686 -0.7962587 -0.13323079
000020 a4 21 82 be 5e a6 da 3c d7 00 60 3e 81 e9 6f 3f
       -0.2541629 0.026690658 0.2187532 0.93715674
000030 70 9a f0 3e 30 de 81 3e 0c 7d 2d 3e ea 0f 1b 3e
       0.46992826 0.25364828 0.16942233 0.1514279
000040 e9 d8 20 bf 95 aa 86 3d 9a 64 fb 3d c5 02 10 3e
       -0.6283098 0.06575505 0.122750476 0.14063556
000050 dc 28 01 3f b3 55 c3 3d 4c af ae 3e 59 81 59 be
       0.5045297 0.0953783 0.34118116 -0.21240748
000060 3e 24 0a 3f d4 10 76 be b9 73 10 bf 92 b8 65 3e
       0.5396155 -0.24029857 -0.5642658 0.22433689
000070 c9 0d 42 3e bc 77 8a 3e 8e a4 8f bd 3e 32 04 3d
       0.18950571 0.27044475 -0.07013808 0.032274477
000080 80 9f e8 bd 36 ca ff be da ef 8b be 7b 12 22 bf
       -0.11358547 -0.49958962 -0.2733143 -0.6330945
000090 76 b0 a1 3e 43 95 47 be 9d 0c be bd a5 30 e7 bb
       0.31579942 -0.19490533 -0.092797495 -0.0070553594
0000a0 7e ab 20 be 62 e9 76 3e 14 5b 26 3c a1 a9 85 be
       -0.15690419 0.24112466 0.010153551 -0.2610598
0000b0 f2 38 e9 bd ad cb 5a 3e 1f 8b 2c 3d 6b a7 1d be
       -0.113878146 0.21366759 0.042124864 -0.15395896

line_stack.0.bias f4 [12]
000000 b8 b8 12 bc 40 8c 22 bc 02 28 1c bc 72 40 1c bc
       -0.008955173 -0.0099211335 -0.009531023 -0.009536849
000010 8a 98 1f 3c af 11 40 3c c9 22 1f bc 50 f0 17 bc
       0.009740958 0.011722966 -0.009712883 -0.009273604
000020 92 16 24 bc 83 3c 16 bc a2 16 17 3c 3b b9 1f bc
       -0.010015147 -0.009169701 0.009221705 -0.009748752

line_stack.2.weight f4 [12, 12]
000000 d1 6c d5 bd ea 86 b6 3c 6f fd c0 be 09 a1 81 3e
       -0.10421146 0.022281129 -0.37693354 0.25318173
000010 2e 48 5f 3e 2b b8 b4 3e b9 57 b3 3e 2c 46 61 3e
       0.21804878 0.3529676 0.35027865 0.21999425
000020 c2 6d 8c be 5a 15 e5 3d f5 f8 1b 3d 9b 05 80 3e
       -0.2742749 0.11185713 0.03807922 0.25004277
000030 b8 9c fa 3b b3 2e 90 3d b2 1b 89 bd 2c 31 0f 3e
       0.007648077 0.07040157 -0.066947356 0.13983601
000040 c5 59 df be 19 85 5a be e9 2c df bc 7a 9c b5 ba
       -0.43623176 -0.21339835 -0.027243095 -0.0013855838
000050 80 0d a5 3e b7 53 21 be 6d d3 3d bd 82 a8 4c 3e
       0.32236862 -0.15754591 -0.04634421 0.19986156
000060 17 e1 0c be a3 28 c4 be 54 d7 4a 3e 31 c4 9d be
       -0.1375774 -0.38312253 0.19808704 -0.30813745
000070 49 cf 86 be 88 df 84 3e 54 40 ea 3d 93 28 1f 3f
       -0.2633002 0.2595179 0.11438051 0.62171286
000080 0c e2 5f 3e 37 47 46 be 73 82 cd bd 6d 25 6f 3e
       0.21863574 -0.19363104 -0.10034647 0.2335412
000090 c7 03 ca bd 3f c3 7e be c3 eb 9e bd 09 5b c4 be
       -0.09864002 -0.24879168 -0.07759812 -0.38350704
0000a0 c3 8e 1d 3f 61 b0 58 3d 51 42 07 be 13 fd 7c be
       0.6154596 0.052902583 -0.13208891 -0.24705915
0000b0 35 cc 26 3e ac 55 11 3e 46 33 64 3e 83 b8 f0 be
       0.16288836 0.14192837 0.22285184 -0.4701577
0000c0 21 a9 28 be b9 e8 ce 3e 9a 59 89 3e 58 12 c4 3e
       -0.16470768 0.40411928 0.26826173 0.38295245
0000d0 27 e0 86 3e 7e b4 95 be a3 2a c6 be 8e da 27 bf
       0.2634289 -0.29239267 -0.38704404 -0.65567863
0000e0 91 af 46 3d 18 ae 34 3e 47 a5 d8 bc 09 e0 4a bf
       0.048507277 0.17644536 -0.026445998 -0.792481
0000f0 c5 b0 f7 bd 91 af 1e bd 80 8e 24 3e 31 d7 d4 be
       -0.12094263 -0.038741652 0.16069984 -0.41570428
000100 53 4f 71 be 7b 7f 06 bd 00 07 0d be 45 6f 0b 3e
       -0.23565416 -0.03283642 -0.13772202 0.13616665
000110 8e 5d 8b 3d 46 63 73 3e f8 2c c6 3e d2 74 bd bd
       0.068049535 0.23768339 0.38706183 -0.09250797
000120 8f 90 f2 3c 73 b6 47 3e 38 65 b0 bd b1 12 7c be
       0.029609947 0.19503193 -0.08613056 -0.24616505
000130 cc 1d 53 be e9 69 b5 3e 18 36 c7 3e e2 e6 34 3f
       -0.20616835 0.35432366 0.38908458 0.706648
000140 16 5c 66 be a9 f3 32 3f 17 80 ca 3e e2 32 49 be
       -0.22496065 0.69903046 0.3955085 -0.19648317
000150 a6 74 b6 3b bb 09 2a be b7 0e c8 3d 0e ff 8f 3e
       0.005568105 -0.16605274 0.09768432 0.2812428
000160 d9 3c e2 3e 00 d8 ba bd a3 80 42 bd da d2 a6 bd
       0.44187048 -0.0912323 -0.04748596 -0.081456855
000170 04 04 66 3e 3d 7c 79 be 0f 26 dc be 72 dc 48 3e
       0.2246247 -0.243638 -0.42997786 0.19615343
000180 e9 70 0c be a7 a8 2e 3e 9d 3c 75 be 10 82 84 3e
       -0.13714947 0.17056523 -0.23948903 0.2588048
000190 de 23 1b bf 1b 7c 01 bd 82 a3 42 bd 24 f1 50 be
       -0.60601604 -0.031612497 -0.047519214 -0.20404488
0001a0 3a 4c bb 3e a0 0d 23 3e cb 57 a1 be ce 66 67 3f
       0.36581594 0.15923166 -0.31512293 0.9039124
0001b0 d3 95 bc 3e 88 28 6d 3e 33 75 13 3f 68 56 86 3e
       0.36833057 0.23159993 0.57600707 0.26237798
0001c0 b2 90 ea be d9 79 22 bf 4a 6e 74 3e 73 8b a7 3e
       -0.4581352 -0.63467175 0.23870197 0.3272358
0001d0 c8 16 bd 3e 55 f6 8f 3e 61 b4 9a 3d 75 3a 53 bd
       0.36931443 0.28117624 0.07553936 -0.05156942
0001e0 af d2 c6 bd 15 f3 02 bd 08 03 8f 3e 5e 2d b7 bc
       -0.097081535 -0.031970102 0.27932 -0.0223605
0001f0 d0 8b d0 be ba df 50 bb e8 e2 9b be 72 b6 99 3d
       -0.40731668 -0.0031871633 -0.30446553 0.07505502
000200 00 a6 28 be 2e ba 0f 3d 23 ff 6a be b2 c5 31 bf
       -0.16469574 0.035089664 -0.2294889 -0.69442284
000210 1c d0 31 be 73 0e 4d 3e ff 5d 19 3e 8c 51 a0 3d
       -0.17364544 0.20025043 0.14977263 0.07828054
000220 bf 1f 49 bd e1 ac a9 be d7 a5 81 bd 39 f8 43 be
       -0.04910254 -0.3313971 -0.063304596 -0.19137658
000230 6d 81 48 be 7a e6 29 3e 0c 69 ea bd 3d 06 9e bc
       -0.19580622 0.16591826 -0.11445817 -0.019290084

line_stack.2.bias f4 [12]
000000 d9 9f 15 3c 41 dc 15 3c 5b 37 17 bc e1 86 17 3c
       0.009132349 0.009146751 -0.009229506 0.009248466
000010 54 ef 13 bc d1 bc 15 3c 7b a3 14 bc 10 45 17 bc
       -0.009029228 0.009139256 -0.00907218 -0.009232774
000020 86 f4 14 bc 83 11 15 bc 08 84 17 3c 16 73 14 3c
       -0.009091502 -0.009098413 0.009247787 0.009060642

line_stack.4.weight f4 [1, 12]
000000 c4 08 80 be 38 9d c0 be 6b 5c 75 3e 78 3e fb be
       -0.25006688 -0.37619948 0.23961036 -0.49071097
000010 a5 ec ce 3e 1c a8 13 be 64 cf 05 3f ad 63 05 3f
       0.4041492 -0.14419597 0.5226958 0.5210522
000020 43 bf a3 3e e7 7a 88 3e 4c 9c f7 be ed 7f 6f be
       0.3198186 0.26656267 -0.48361433 -0.23388644
