Single_pendulum/models/model.pt (torch, 20148 bytes, 5 tensors)

line_stack.0.weight f4 [64, 2]
0	0x3e546069	0.20739903
1	0xbd2167cd	-0.039405633
2	0x3d9be630	0.07612264
3	0xbadfd1c2	-0.0017076063
4	0xb9ae0281	-0.00033189732
5	0x3d0c7f14	0.03430088
6	0x3e9df510	0.3085103
7	0x3b186090	0.0023250915
8	0xbe2411c1	-0.16022398
9	0xbc6a2d40	-0.014293015
10	0x3c823e5f	0.015898881
11	0x3b38ac0c	0.002817872
12	0xbe2eaaac	-0.17057294
13	0xbc8da75f	-0.017291723
14	0x3dfb34a9	0.122659035
15	0x3c4745d0	0.012162641
16	0x3dae0121	0.08496309
17	0xbc6ed323	-0.014576706
18	0xbf2dc9b8	-0.67885923
19	0xbd5224d1	-0.051304642
20	0xbe80d991	-0.2516599
21	0xbcc27d59	-0.023741411
22	0x3e11bb00	0.14231491
23	0x3c3f470c	0.011674654
24	0xbba18f86	-0.0049304394
25	0xba584e48	-0.0008251411
26	0xbe3c0c45	-0.18364055
27	0xbc20c269	-0.009811976
28	0x3daeb8cd	0.08531342
29	0xb9dfb46e	-0.00042668305
30	0xbed0ffe1	-0.4082022
31	0xbcd384cb	-0.025820157
32	0xbe98e968	-0.29865575
33	0xbc3a1b6f	-0.01135908
34	0xbe82cd13	-0.25547084
35	0xbc67236a	-0.014107564
36	0x3e7b082b	0.24514835
37	0xbc4cd866	-0.012502765
38	0xbb95a438	-0.0045666955
39	0xbc2419c9	-0.010015913
40	0xbe586020	-0.21130419
41	0xbd223cee	-0.03960889
42	0x3f055de5	0.52096397
43	0xbdf13154	-0.11776987
44	0x3dca1ab8	0.098683774
45	0x3b67ad19	0.0035350977
46	0xbe3f9deb	-0.18712585
47	0xbd151aa2	-0.036402352
48	0xbf573f8b	-0.84081334
49	0xbcfd4cfb	-0.030920496
50	0x3e7abb82	0.24485591
51	0x3c003dd3	0.00782724
52	0xbe44bd98	-0.1921295
53	0xbe9e8133	-0.30957946
54	0xbe96dbc2	-0.29464537
55	0xb9c4aecc	-0.00037514267
56	0xbfaedd05	-1.36612
57	0x3c6e2d72	0.014537202
58	0x3e7c75c5	0.246543
59	0x3d5db05b	0.054123264
60	0x3d501a64	0.050806418
61	0x3a3fb215	0.0007312608
62	0x3e8d1326	0.27553672
63	0x3c6ec2f9	0.014572852
64	0xbf6a7bb5	-0.9159501
65	0x3bf852d6	0.007578234
66	0x3ea88d35	0.32920232
67	0x3cf33952	0.029690418
68	0x3e4d6201	0.20056917
69	0x3d191a31	0.037378494
70	0xbe324114	-0.17407638
71	0xbb78d7db	-0.0037970457
72	0xbe84f755	-0.2596995
73	0xbc5aee7d	-0.013362524
74	0x3d536835	0.05161305
75	0x3c16d65e	0.009206383
76	0xbf0fac6b	-0.56122464
77	0xbe7e321f	-0.24823807
78	0xbe022ce9	-0.12712444
79	0xbc221a61	-0.0098939845
80	0x3e32ed50	0.1747334
81	0x3c3f0412	0.011658685
82	0xbe44fe63	-0.19237666
83	0xbcc9a23e	-0.024613496
84	0xbe2c6ced	-0.16838427
85	0xbca8e3dc	-0.020616464
86	0xbf877347	-1.0582055
87	0xbbd563ee	-0.0065121567
88	0xbe4b1fe1	-0.1983638
89	0xbc1f0894	-0.009706635
90	0xbf023800	-0.508667
91	0xbd9d883d	-0.07692001
92	0x3ea00f28	0.31261563
93	0xbc6b9139	-0.0143778855
94	0x3f76ffe1	0.9648419
95	0x3d0bf785	0.0341716
96	0xbe4d283d	-0.20034881
97	0xbd1b6ac6	-0.037943624
98	0x3e124f07	0.14287959
99	0x3d426c07	0.047466304
100	0xbe3d87a4	-0.18508774
101	0xbc65a43d	-0.014016208
102	0x3de7929c	0.113072604
103	0x3e5fdeb3	0.21862297
104	0x3e83897e	0.25690836
105	0x3ccca43a	0.024980653
106	0x3e341a39	0.17588128
107	0x3cc45a3e	0.023968812
108	0x3f1a6042	0.6030313
109	0x3e391e7a	0.18078032
110	0xbe8d5ff6	-0.27612275
111	0xbc156336	-0.009117892
112	0x3ea00942	0.31257063
113	0x3cb9fe3b	0.022704234
114	0x3eb591f2	0.3546291
115	0x3db77f2c	0.08959803
116	0xbd9430ee	-0.07235895
117	0xbb280039	-0.0025634898
118	0xc00fce1d	-2.2469552
119	0xbd506e5d	-0.0508865
120	0xbe698146	-0.2280322
121	0xbc9061ca	-0.017624754
122	0x3e6151cc	0.2200386
123	0x3d0e25c0	0.03470397
124	0xbdd63203	-0.10458758
125	0xbbb37ccb	-0.005477523
126	0xbf1d41d0	-0.61428547
127	0x3ad5735a	0.0016284988

line_stack.0.bias f4 [64]
0	0xbe358817	-0.17727695
1	0xbd4f0f31	-0.050551597
2	0x3d7eafd0	0.062179387
3	0xbe0f4265	-0.13990171
4	0x3e155347	0.14582549
5	0xbc50c060	-0.012741178
6	0x3d7a6352	0.061129875
7	0xbd89a5be	-0.06721066
8	0xbd37954f	-0.044820126
9	0x3cd2195e	0.025646862
10	0xbd1e017f	-0.038575646
11	0x3b122d39	0.0022304787
12	0xba829c02	-0.0009964707
13	0x3ce7d165	0.02829809
14	0xbda655b5	-0.08121816
15	0x3de417d7	0.111373596
16	0x3d9c6ef1	0.07638348
17	0x3e171527	0.14754163
18	0xbd2b54db	-0.04182897
19	0x3c9259b1	0.017865034
20	0x3e25a837	0.1617745
21	0xbd5ef80a	-0.054435767
22	0xbd54d9b9	-0.05196545
23	0x3dbe6052	0.092957154
24	0x3d29aa51	0.041422192
25	0xbdcf7706	-0.10130124
26	0xbe91b1e5	-0.28456035
27	0x3d5bdf0e	0.05367952
28	0xbcfe88e7	-0.03107114
29	0xbeb2b159	-0.3490093
30	0xbca0c10b	-0.0196233
31	0xbe07496b	-0.132116
32	0x3cbb2f8f	0.022849826
33	0xbe43b330	-0.19111323
34	0xbe394344	-0.18092066
35	0x3d5a9c5d	0.053371776
36	0x3e266ab0	0.16251636
37	0xbc8069d1	-0.015675457
38	0x3da0c938	0.078508794
39	0x3d5485d1	0.05188543
40	0xbe103d5d	-0.14085908
41	0x3e2081c3	0.156745
42	0x3e1b181f	0.1514592
43	0x3bf28e46	0.007402214
44	0x3e03c560	0.12868261
45	0xbc574e5d	-0.013141242
46	0xbdbe3ccf	-0.09288942
47	0x3d45e8d4	0.048317745
48	0x3d70e89f	0.058815595
49	0xbdbf215a	-0.09332533
50	0x3dcd849e	0.1003506
51	0x3e852f93	0.2601286
52	0xbe870cec	-0.26377046
53	0xbc223c7b	-0.009902115
54	0xbe46f1eb	-0.19428222
55	0xbd89bcae	-0.06725441
56	0xbd9f38e3	-0.07774522
57	0x3e813390	0.25234652
58	0x3d2d8396	0.04236182
59	0xbbc3e900	-0.0059787035
60	0x3e584b57	0.2112249
61	0xbe3916e5	-0.1807514
62	0x3d3ab90e	0.04558664
63	0x3d82cc83	0.06386664

line_stack.2.weight f4 [64, 64]
0	0xbe07a161	-0.13245155
1	0x3cdaab25	0.026692936
2	0xbc9d59be	-0.019207831
3	0xbd4d623e	-0.05014252
4	0xbc50062c	-0.012696784
5	0xbdb3633b	-0.08759161
6	0x3dc5cddf	0.096584074
7	0x3ddbc97f	0.10731792
8	0xbeaa6233	-0.33278045
9	0xbe47028e	-0.19434568
10	0x3dd6fa21	0.10496927
11	0x3cc9bcab	0.024626097
12	0x3d6acea1	0.057325963
13	0xbe57fd22	-0.21092656
14	0xbd64fb30	-0.055903614
15	0xbcb2a844	-0.02180875
16	0x3a48bc48	0.00076574506
17	0x3e337199	0.17523803
18	0xbdbd8ac9	-0.09254987
19	0x3e47f57e	0.19527242
20	0xbe4a5d45	-0.19762142
21	0x3e3f0ec8	0.18657982
22	0xbd8137ca	-0.06309469
23	0x3d8d668a	0.069043234
24	0x3e66374b	0.2248203
25	0xbd7a6da5	-0.06113972
26	0x3da719cb	0.081592165
27	0xbe128a68	-0.1431061
28	0xbce38518	-0.027773425
29	0x3cdb765d	0.026789838
30	0xbd57d803	-0.05269624
31	0xbd70677a	-0.058692433
32	0x3e0aac77	0.13542353
33	0xbe2dc9a8	-0.16971457
34	0xbc5503ba	-0.013001377
35	0xbd82fce4	-0.06395891
36	0x3db20592	0.08692469
37	0x3e4c7203	0.19965367
38	0x3d5d3505	0.05400564
39	0xbb545aa7	-0.0032402666
40	0x3e16933d	0.14704604
41	0x3e54fd8c	0.20799845
42	0x3de6d203	0.11270525
43	0xbe3b38b0	-0.18283343
44	0xbd9f1877	-0.07768338
45	0xbc94c2ba	-0.01815926
46	0xbdb33e3c	-0.08752105
47	0xbe530d66	-0.2061058
48	0xbddf8c4c	-0.109154314
49	0xbe187974	-0.1489008
50	0xbe0aacce	-0.13542482
51	0x3e0f5712	0.13998058
52	0x3e4930a8	0.19647467
53	0xbd33f580	-0.0439353
54	0x3d59580d	0.053062487
55	0x3c15aefd	0.009135959
56	0x3de6a0b2	0.11261119
57	0x3c084d56	0.00831922
58	0x3e163d9e	0.14671943
59	0xbd6f5989	-0.058434997
60	0x3db4c614	0.08826843
61	0x3c2b3ee7	0.010452009
62	0xbdfddc2b	-0.12395509
63	0xbe0f065a	-0.13967267
64	0xbd149434	-0.03627415
65	0xbe34e032	-0.17663649
66	0x3dd5722a	0.10422166
67	0x3e26d3ba	0.16291705
68	0xbcc2d06b	-0.023781022
69	0x3d58eb76	0.052958928
70	0xbe817954	-0.2528788
71	0x3e286c61	0.16447593
72	0xbcdfef02	-0.027335647
73	0xbe17cd96	-0.14824519
74	0x3e90207c	0.28149784
75	0xbdb8cfbe	-0.09023999
76	0xbc3d2ba6	-0.011546051
77	0xbddf4fe1	-0.109039076
78	0x3dfffdd2	0.12499584
79	0x3be9e8c7	0.007138345
80	0xbe501d4e	-0.20323679
81	0xbcfb2e70	-0.030661792
82	0x3c553c23	0.013014826
83	0x3df2a8fe	0.11848639
84	0xbdd9afa8	-0.10629207
85	0xbe635831	-0.22201611
86	0xbd93efdc	-0.07223484
87	0x3e5f0af4	0.21781522
88	0x3e1ada53	0.15122347
89	0x3e1e1a69	0.15439762
90	0xbe761a43	-0.24033456
91	0xbd710d62	-0.058850653
92	0x3e2535e0	0.16133833
93	0x3dd616d1	0.10453571
94	0x3cf39ca7	0.029737784
95	0xbda0424e	-0.078251466
96	0x3c87f004	0.01659394
97	0x3e04a2b6	0.12952694
98	0x3de80dc3	0.1133075
99	0xbe229339	-0.15876473
100	0xbe9ece47	-0.31016752
101	0xbde0eafd	-0.109823205
102	0xbc480774	-0.012208808
103	0xbe05f7a8	-0.13082755
104	0x3df18b41	0.11794139
105	0x3e2a65e4	0.1664043
106	0xbe3f0333	-0.18653564
107	0x3da5f2a8	0.08102924
108	0xbe01bc55	-0.12669499
109	0x3d0bb11e	0.03410446
110	0x3e02052e	0.12697288
111	0x3b9b6c6c	0.0047431495
112	0x3dadd634	0.08488122
113	0x3dbb44d1	0.09143985
114	0xbe8f20de	-0.27954763
115	0xbc9fb93c	-0.019497506
116	0xbe1364ee	-0.1439397
117	0xbd98980e	-0.07450877
118	0xbe6b469d	-0.22976156
119	0x3e296365	0.16541822
120	0x3e014512	0.12624004
121	0x3d9d91a0	0.076937914
122	0xbe61b297	-0.22040783
123	0x3e488c37	0.19584738
124	0xbc691ed8	-0.014228545
125	0xbe0f7bdd	-0.14012094
126	0x3b116048	0.0022182632
127	0xbd902270	-0.070378184
128	0xbe355b2e	-0.17710564
129	0xbda62aab	-0.08113607
130	0xbe2b5250	-0.16730618
131	0x3cead896	0.02866773
132	0xbca71e8c	-0.020400308
133	0xbe41f9bc	-0.18942922
134	0xbc805975	-0.015667656
135	0xba8141c9	-0.0009861524
136	0x3b1cc605	0.002392174
137	0x3dcd5b91	0.100272305
138	0xbe04b7d8	-0.12960756
139	0xbd904c53	-0.07045808
140	0xbe42b3b2	-0.19013861
141	0xbca0ed44	-0.019644387
142	0xbdfc5de1	-0.123225935
143	0x3deb7ece	0.114987954
144	0xbc33c882	-0.010973098
145	0x3a2fe73f	0.00067101786
146	0xbcf5280d	-0.029926324
147	0x3dd4af9d	0.10385058
148	0xbe1b6992	-0.1517699
149	0xbea35c7a	-0.31906492
150	0x3d69dd77	0.05709597
151	0xbe05ba9e	-0.1305947
152	0x3e164482	0.14674571
153	0xbdeae397	-0.114691906
154	0xbea5b1ef	-0.32362315
155	0xbb72bc8f	-0.003703866
156	0x3e40d166	0.18829879
157	0x3d7a6b3a	0.061137415
158	0x3c87a3f9	0.01655768
159	0x3dd9f933	0.10643234
160	0x3f0e56cc	0.5560119
161	0xbcd21e2d	-0.025649155
162	0xba13ba0c	-0.0005635328
163	0xbe240cd2	-0.16020516
164	0x3d7607fb	0.060066205
165	0x3da2ad60	0.07943225
166	0xbe8defea	-0.27722102
167	0xbdd9be51	-0.10632003
168	0x3e07f844	0.132783
169	0xbd9eced4	-0.07754293
170	0x3b87ef24	0.004148381
171	0x3ed822af	0.4221396
172	0x3e0a2ab6	0.13492855
173	0x3e2a2dff	0.16619109
174	0xbdbe4be5	-0.092918195
175	0xbed4a2a1	-0.41530326
176	0x3bea04dc	0.0071416926
177	0xbcedde69	-0.029036717
178	0xbddb1677	-0.10697644
179	0x3dee7fd0	0.11645472
180	0xbe12dc0f	-0.14341758
181	0x3e13ec53	0.1444562
182	0x3d2e3f75	0.042540986
183	0xbca74f67	-0.020423604
184	0x3cc3b47f	0.023889778
185	0x3cad27a4	0.021137066
186	0x3ce651f7	0.028115256
187	0x3eac39fa	0.33637983
188	0x3c96091e	0.018314894
189	0x3d903524	0.07041386
190	0xbd59abc8	-0.05314234
191	0x3e9f3084	0.31091702
192	0xbcb33b73	-0.021878934
193	0xbe17c9c9	-0.14823069
194	0xbe64e446	-0.22352704
195	0xbe351107	-0.17682277
196	0xbe4e45ba	-0.20143786
197	0xbe38e385	-0.18055542
198	0xbda92c5c	-0.08260414
199	0x3e0f601c	0.14001507
200	0x3cfe7d29	0.03106554
201	0xbe45dcab	-0.1932246
202	0xbe0c496e	-0.13699886
203	0x3c81661f	0.015795765
204	0xbc6ae998	-0.01433792
205	0x3d824ef0	0.063627124
206	0x3eadb78e	0.33929104
207	0xbb203f16	-0.0024451665
208	0x3d08afb0	0.033370674
209	0x3d369267	0.044573214
210	0x3df9d043	0.12197926
211	0xbd89afc1	-0.067229755
212	0x3d959054	0.07302919
213	0xbde6536a	-0.11246379
214	0x3da83d39	0.08214802
215	0x3b94af55	0.004537503
216	0xbd40b68f	-0.0470491
217	0xbdb773da	-0.08957644
218	0xbe1fc958	-0.1560415
219	0xbe65abe3	-0.22428851
220	0x3cae4572	0.021273348
221	0x3df6bac8	0.120473444
222	0x3d674da0	0.056470513
223	0xbe8a0416	-0.26956242
224	0xbdb274ec	-0.08713707
225	0x3c33a5fa	0.010964865
226	0xbdab6204	-0.08368304
227	0xbe206344	-0.15662867
228	0x3c3d201e	0.011543302
229	0x3dc66673	0.096875094
230	0x3c7fa31a	0.015602851
231	0x3d981108	0.074251235
232	0xbe3d6b73	-0.1849802
233	0xbd9f5e5c	-0.077816695
234	0x3c19751e	0.009366302
235	0x3e164869	0.1467606
236	0x3ceb9dd3	0.02876178
237	0x3f027169	0.509543
238	0x3d3926fe	0.0452032
239	0xbe20b92e	-0.1569564
240	0x3e0f7a98	0.1401161
241	0xbbaa3eb0	-0.005195461
242	0x3dcbd6e5	0.09953097
243	0x3dc6ca18	0.09706515
244	0x3e2d9862	0.1695266
245	0xbdcc0516	-0.099619076
246	0xbdf0e3e7	-0.11762219
247	0x3de28cc4	0.11062005
248	0x3e8ddb80	0.27706528
249	0x3e47faff	0.19529341
250	0x3dfbef5f	0.12301516
251	0xbe17e8f3	-0.14834957
252	0xbd44bef4	-0.04803367
253	0xbddf7f00	-0.10912895
254	0xbcf6825a	-0.030091453
255	0xbe1f6841	-0.15567113

line_stack.2.bias f4 [64]
0	0xbd46337b	-0.04838894
1	0xbdddbc63	-0.108269475
2	0x3d9e5c67	0.07732468
3	0xbd849cf1	-0.06475247
4	0x3e37ba98	0.17942274
5	0x3c0743ed	0.008255941
6	0x3d81ffff	0.063476555
7	0x3d78afc3	0.060714494
8	0x3ccd62b2	0.025071476
9	0xbdb77575	-0.0895795
10	0xbc445a78	-0.01198446
11	0xbc8e80c4	-0.017395385
12	0x3e6d0d59	0.23149623
13	0x3c3d3d70	0.011550292
14	0xbd602ab8	-0.05472824
15	0xbd403706	-0.046927474
16	0xbdc617c1	-0.096724994
17	0x3b9e044d	0.00482229
18	0xbe38ca30	-0.18045878
19	0x3d3f5d0a	0.04671959
20	0x3ebdf5a8	0.37101483
21	0xbe169c1d	-0.1470799
22	0x3e31c960	0.17361975
23	0xbddc8dfd	-0.107692696
24	0x3ceffa7b	0.029294243
25	0x3d8b0638	0.067882955
26	0x3dd86b40	0.10567331
27	0x3ca9a912	0.020710502
28	0x3df139de	0.117786154
29	0xbd2e136c	-0.04249899
30	0x3c29a260	0.010353655
31	0xbc27f0e5	-0.010250305
32	0xbd11512e	-0.03547781
33	0xbc013c8d	-0.007887972
34	0x3c26df29	0.010185041
35	0x3cce3b03	0.025174623
36	0x3e6684c6	0.22511587
37	0xbe664050	-0.22485471
38	0xbde72c7a	-0.1128778
39	0xbdddb093	-0.108246945
40	0xbde8a1a7	-0.11358958
41	0xbcd14ec0	-0.025550246
42	0xbdd8c7db	-0.105849944
43	0x3d368a65	0.044565577
44	0x3da0e748	0.078566134
45	0xbbdda405	-0.0067639374
46	0xbe523a62	-0.20530084
47	0x3ba2ec02	0.004971982
48	0x3c69f235	0.014278938
49	0xbd7742e5	-0.06036653
50	0x3e025106	0.1272622
51	0x3cacbe5a	0.02108686
52	0xbc7ae0a0	-0.015312344
53	0x3d45fc6e	0.04833644
54	0x3d4742e3	0.048647773
55	0x3d2e3054	0.042526558
56	0xbe0a17b7	-0.13485609
57	0x3db81be6	0.08989696
58	0x3c9ae29e	0.018906888
59	0x3d6e5520	0.05818665
60	0xbabb71c7	-0.0014300876
61	0xbd94172e	-0.07230984
62	0xbd9e0ed9	-0.07717676
63	0xbcf0aeb0	-0.029380172

line_stack.4.weight f4 [1, 64]
0	0x3a6b4fe1	0.00089764415
1	0x3ca16fd6	0.019706648
2	0xbe0689d5	-0.13138516
3	0x394c5d16	0.00019489633
4	0xb97ada05	-0.00023923077
5	0xba3696d6	-0.00069652253
6	0xbe552ae6	-0.20817146
7	0xbee91daf	-0.4553046
8	0xb99a57d3	-0.00029438603
9	0x3a4863d3	0.00076442695
10	0xba37c940	-0.00070108846
11	0xb90d7138	-0.00013488985
12	0xbde3bc6a	-0.111199215
13	0xbad69a35	-0.0016372862
14	0x3aaf8243	0.0013390261
15	0x3a3ee3a0	0.00072818436
16	0xba4cc0a4	-0.0007810688
17	0xb998c7ed	-0.00029140656
18	0x3deddf55	0.11614863
19	0xbb4a42af	-0.00308625
20	0xbe6f1827	-0.23349057
21	0x3da96766	0.08271675
22	0xbc96318d	-0.018334175
23	0x3b1d62b9	0.0024015142
24	0x39d2ed21	0.00040230996
25	0x3f1359d5	0.5755895
26	0xbb378b7a	-0.0028006718
27	0xbaa9edd1	-0.0012964552
28	0xba7ba5dc	-0.0009599605
29	0x39077f96	0.00012922133
30	0x399c64be	0.00029829697
31	0xb96d895a	-0.00022653249
32	0x3b2534b3	0.0025208413
33	0xba72e8ad	-0.0009266239
34	0x3a28f422	0.000644507
35	0xba87deb9	-0.0010366059
36	0xbd8d4a0a	-0.068988875
37	0x3ec1a92a	0.37824374
38	0x3d17a0b1	0.03701848
39	0x3dabdd59	0.08391828
40	0x3c1acd50	0.009448364
41	0x3a1688c9	0.00057424285
42	0x3e2b40d8	0.16723955
43	0xbba071e9	-0.0048963916
44	0x3a2392c8	0.00062398287
45	0x3b3fb1ff	0.002925038
46	0x3e2fa6a3	0.1715341
47	0xba37c20b	-0.00070098107
48	0x3a3e2ea5	0.00072548754
49	0xba267288	-0.0006349464
50	0xba64a77e	-0.0008722468
51	0x3abb1bc3	0.0014275241
52	0xbae19521	-0.0017210582
53	0xbb40e9c4	-0.002943621
54	0xbb5db962	-0.003383242
55	0x3e60c361	0.21949531
56	0x3d9d180e	0.07670604
57	0xbb27588a	-0.002553495
58	0x396d9f68	0.00022661465
59	0xbb8357e9	-0.0040082824
60	0xbbb828a4	-0.005620079
61	0x3d131e89	0.035917792
62	0x387694c2	5.8789512e-05
63	0x3941a560	0.00018467521
