Single_pendulum/models/model.pt (torch, 20148 bytes, 5 tensors)

line_stack.0.weight f4 [64, 2]
0.07579603 -0.011229 -0.26450557 -0.01982189 -0.40715563 -0.04547743 0.20388184 0.014838535
0.42105237 -0.004498121 -1.7392557 0.0069473214 -0.23967554 -0.019413771 0.2446335 0.0130571015
0.10582576 0.010278005 -0.11236813 0.10607509 1.0259165 -0.0017214061 0.4990308 0.20060661
-0.020276122 0.006535288 -0.11421029 -0.0044095255 -0.105855435 -0.0005210242 -0.7502053 -0.005686838
-0.010064006 0.0020888718 -0.073661014 -0.22499011 -0.09603149 -0.025642805 -0.2772722 -0.0036049297
0.028325675 -0.0011982769 -0.10813204 -0.0068048793 -0.012694426 0.00587251 0.3487121 -0.0017662884
0.021610668 0.00070633687 0.036647324 -0.012227562 0.5888202 -0.0180309 -0.18335204 -0.0020267293
0.15504828 0.02316327 -0.9617825 -0.07431999 -0.097559765 -0.0092111705 0.19383109 0.010497586
-0.19520175 -0.031417955 -0.04982024 0.012852712 -0.6098003 -0.036481235 0.1190649 0.009433836
-0.5476839 -0.18596168 -0.008847126 -3.7090438e-05 0.28178853 0.0009732404 0.22012818 0.011666067
-0.00043385196 -0.0021331196 0.29356363 0.013603362 0.060554013 0.0028054812 0.20309958 0.011940615
0.3469577 -0.0027513914 -0.3356794 0.007135997 -0.07464407 -0.07347613 0.30051976 0.0037921672
0.0576286 0.01623806 0.71361166 0.010189648 0.07351559 -0.017084893 0.81741667 0.032457955
0.2921602 0.02072186 0.2522054 0.0063879057 -0.06355569 -0.002486466 0.22790043 0.017093511
0.15779658 0.011349916 -1.0713258 -0.03287371 0.07282906 -0.09453381 0.060932476 0.018059136
-0.7713472 -0.07663056 0.33174008 0.02027319 -0.018108899 -0.00072371645 -0.17905134 -0.022190284
00000000: f33a 9b3d d7f9 37bc 466d 87be 8461 a2bc
00000010: b476 d0be 8b46 3abd 67c6 503e 541d 733c
00000020: 2d94 d73e f964 93bb ee9f debf 5ba6 e33b
00000030: 816d 75be a109 9fbc 3481 7a3e 74ed 553c
00000040: 2dbb d83d 1465 283c 4321 e6bd e63d d93d
00000050: 3b51 833f cea0 e1ba f780 ff3e d26b 4d3e
00000060: 1c1a a6bc f825 d63b 16e7 e9bd c87d 90bb
00000070: bcca d8bd 5895 08ba 740d 40bf a858 babb
00000080: 80e3 24bc 74e5 083b 96db 96bd cf63 66be
00000090: 28ac c4bd dc10 d2bc 9ff6 8dbe af40 6cbb
000000a0: 3f0b e83c 800f 9dba 5574 ddbd 77fb debb
000000b0: 48fc 4fbc 2f6e c03b 648a b23e ce82 e7ba
000000c0: db08 b13c 7729 393a 811b 163d 1d56 48bc
000000d0: ecbc 163f 8ab5 93bc a3c0 3bbe e0d2 04bb
000000e0: fac4 1e3e e6c0 bd3c 6137 76bf 1435 98bd
000000f0: 6acd c7bd 73ea 16bc a87b 463e 11fe 2b3c
00000100: f8e2 47be 1db0 00bd 4f10 4cbd 2e94 523c
00000110: df1b 1cbf 596d 15bd 4cd8 f33d 6090 1a3c
00000120: 0335 0cbf bd6c 3ebe 89f3 10bc 8e91 1bb8
00000130: 9646 903e 0f21 7f3a 4869 613e 0823 3f3c
00000140: a076 e3b9 cfcb 0bbb f94d 963e a3e0 5e3c
00000150: 7c07 783d 2adc 373b 56f9 4f3e 92a2 433c
00000160: 71a4 b13e b050 34bb 2cde abbe 15d5 e93b
00000170: fdde 98bd a77a 96bd badd 993e 0286 783b
00000180: f80b 6c3d ae05 853c 41af 363f 7bf2 263c
00000190: 578f 963d 9ef5 8bbc 3842 513f a2f2 043d
000001a0: 0696 953e e4c0 a93c 1121 813e a351 d13b
000001b0: 7c29 82bd faf3 22bb bb5e 693e b107 8c3c
000001c0: 6d95 213e 00f5 393c 3421 89bf 95a6 06bd
000001d0: 6727 953d f19a c1bd 5594 793d c1f0 933c
000001e0: 0377 45bf 7cf0 9cbd d6d9 a93e f613 a63c
000001f0: 1d59 94bc cab7 3dba 3c59 37be 66c8 b5bc

line_stack.0.bias f4 [64]
-0.02395388 0.04875866 0.09564553 -0.12988245 -0.06820759 0.010790082 0.10879933 -0.046994384
-0.09744231 0.15871343 0.03784972 0.50492567 -0.04180659 0.068381704 0.06700034 -0.014933691
-0.0037327926 0.059343442 -0.008603093 0.12957871 -0.017283456 0.15623139 0.026791109 0.068938024
-0.022014119 -0.04489289 -0.06918317 0.07110546 -0.16723043 -0.045983806 0.11658797 -0.047026534
0.094807364 0.00041762553 -0.034364603 -0.060533024 -0.3406567 0.015026837 0.11713863 -0.119757995
-0.009584591 -0.22136232 -0.057991877 -0.18999968 -0.097947985 0.07437739 0.06490237 -0.026993567
0.057914052 -0.017048106 -0.021564158 -0.042314038 -0.06942454 -0.10224454 0.01744671 -0.06156587
-0.14146656 -0.00390101 -0.22977218 -0.029443871 -0.32103875 -0.111766614 -0.060268607 0.16942014
00000000: ed3a c4bc 29b7 473d cee1 c33d e8ff 04be
00000010: 6cb0 8bbd e2c8 303c 2fd2 de3d 2f7d 40bd
00000020: d58f c7bd c685 223e 4f08 1b3d cf42 013f
00000030: 633d 2bbd b50b 8c3d 7937 893d 71ac 74bc
00000040: dea1 74bb 1c12 733d fdf3 0cbc 48b0 043e
00000050: 0996 8dbc 1ffb 1f3e 0779 db3c 612f 8d3d
00000060: f456 b4bc 9be1 37bd e8af 8dbd bd9f 913d
00000070: 743e 2bbe 8459 3cbd acc5 ee3d e59e 40bd
00000080: 5d2a c23d c0f4 da39 e6c1 0cbd 7af1 77bd
00000090: 8e6a aebe 1f33 763c 61e6 ef3d ae43 f5bd
000000a0: b008 1dbc ceac 62be e488 6dbd 478f 42be
000000b0: f498 c8bd 2c53 983d 89eb 843d 9d21 ddbc
000000c0: 4937 6d3d 78a8 8bbc 51a7 b0bc 7c51 2dbd
000000d0: 742e 8ebd 9665 d1bd 67ec 8e3c 7e2c 7cbd
000000e0: 9cdc 10be 16a8 7fbb 6649 6bbe 4634 f1bc
000000f0: 315f a4be e5e5 e4bd 37dc 76bd 797c 2d3e

line_stack.2.weight f4 [64, 64]
-0.09462451 -0.32813212 -0.053189956 0.09540976 0.08885615 -0.049567714 -0.10357061 0.25555766
0.0018056578 0.32869413 0.13518128 0.41824841 -0.16337974 0.14011265 0.036246352 -0.3031822
-0.10264557 -0.3157118 -0.1214944 -0.0696808 -0.07637836 0.009644201 0.32717702 0.28222787
-0.06493506 -0.13436255 -0.00976137 -0.12441414 -0.12011308 -0.36111414 0.32169572 0.16183093
-0.20117593 -0.18257768 -0.07469787 0.14922442 -0.18013956 -0.018095622 0.14055127 0.1094885
-0.15732051 -0.07596975 -0.28180256 -0.026952969 0.0949087 -0.12085541 -0.09354739 0.13006774
0.088858925 0.05027452 -0.042694714 0.06558907 0.25866655 -0.011647148 -0.12546633 0.16633432
-0.0256367 -0.28383428 -0.124892965 0.07012069 -0.042403392 0.13531181 -0.11499353 -0.07457685
0.016276127 0.19561064 -0.11626315 0.055536043 0.10370217 0.10229209 0.022917068 -0.21484637
-0.07236197 -0.08359073 0.063343674 0.069350675 -0.034827407 0.11153475 0.27458623 0.0033504448
-0.2767002 0.006608705 -0.10430909 -0.14433557 0.25228488 -0.28471535 0.07389439 0.12276957
0.14854312 0.2072089 -0.1605102 -0.10104706 0.106891155 -0.29172945 -0.03292961 0.042956516
0.026637683 -0.014116146 0.22031456 -0.04460996 0.05990487 0.14256275 -0.088488586 -0.13993996
0.13512965 -0.08576326 -0.17671919 -0.10248782 0.2207727 0.19091374 -0.17371467 -0.13378273
-0.08280359 0.087161526 0.074053645 0.043573014 -0.11890814 0.04143855 -0.21478596 0.09284272
0.046636835 0.17137003 0.106366284 -0.045504574 0.02522521 0.15801351 0.06599541 -0.11547777
-0.012398733 -0.08293078 -0.04903335 0.036716606 0.16225895 0.02388378 -0.08912292 -0.14509742
-0.08789259 0.13173994 -0.06493785 -0.032119833 -0.026071217 -0.012879455 -0.004220829 -0.03129494
-0.0880993 0.05924924 0.08393681 -0.0018842261 -0.11377739 0.03143832 -0.10047304 0.13568226
-0.03601264 -0.22596171 -0.07412374 -0.052295685 0.06781227 0.1957907 0.18770473 -0.056980908
-0.069952354 0.08274213 0.109426096 0.12213128 -0.026353223 0.1067967 0.029328391 -0.2081902
0.08464892 -0.00083628646 0.10353425 -0.13218194 -0.1065397 -0.11210322 0.1186942 -0.00828881
-0.09893509 -0.0858988 0.19336064 0.08882757 0.08029497 0.07323104 0.1521193 0.2105386
-0.058702536 -0.226907 -0.11531698 0.13602467 0.045598812 -0.09067738 -0.04386278 0.025311925
0.039313592 -0.2225866 0.077358134 0.2567005 0.027878003 0.0072592855 -0.0017516622 0.016448013
-0.074385524 -0.06961756 -0.08775125 -0.14077374 -0.034526832 -0.004828941 0.03518305 -0.009970812
-0.098706916 0.07337831 -0.050706487 0.035613142 -0.13965362 -0.087934576 -0.19188166 0.029142605
-0.13785943 0.20008022 -0.092232645 -0.05915217 -0.03217239 -0.2067502 -0.11585159 0.14665307
0.026668524 0.08081833 -0.047571164 -0.17015086 -0.09977995 -0.0171152 0.11160808 0.03628932
0.059310205 -0.12740564 0.00909945 -0.01998715 0.0032867414 0.14254081 -0.16228566 -0.0965205
-0.097399265 0.2417763 -0.14212848 -0.055682827 0.05324999 -0.103077285 -0.03197866 0.10950357
-0.014272367 0.002273032 -0.09172902 -0.08597968 0.19078667 -0.21343695 0.058169004 0.07495519
00000000: 7fca c1bd ef00 a8be b6dd 59bd 3166 c33d
00000010: 37fa b53d 8407 4bbd d41c d4bd 74d8 823e
00000020: d2ab ec3a 994a a83e f66c 0a3e a824 d63e
00000030: 054d 27be b179 0f3e 0e77 143d b33a 9bbe
00000040: d737 d2bd faa4 a1be 0ed2 f8bd cfb4 8ebd
00000050: 426c 9cbd b602 1e3c bf83 a73e 2c80 903e
00000060: acfc 84bd 5696 09be 27ee 1fbc d7cc febd
00000070: d9fd f5bd f4e3 b8be 4db5 a43e 02b7 253e
00000080: 1001 4ebe a5f5 3abe 32fb 98bd 49ce 183e
00000090: 8176 38be 453d 94bc acec 0f3e 823b e03d
000000a0: a118 21be 0796 9bbd 6d48 90be 79cc dcbc
000000b0: 7e5f c23d 0b83 f7bd c695 bfbd 7a30 053e
000000c0: abfb b53d a8ec 4d3d a7e0 2ebd 9053 863d
000000d0: f16f 843e aed3 3ebc 3f7a 00be 8b53 2a3e
000000e0: 0f04 d2bc ba52 91be e2c7 ffbd 709b 8f3d
000000f0: 2eaf 2dbd 2e8f 0a3e ba81 ebbd bfbb 98bd
00000100: 8355 853c 284e 483e 601b eebd c379 633d
00000110: ce61 d43d 847e d13d 93bc bb3c b000 5cbe
00000120: 8332 94bd 9e31 abbd 54ba 813d ba07 8e3d
00000130: 2fa7 0ebd 556c e43d 9196 8c3e 2393 5b3b
00000140: a6ab 8dbe d68d d83b 01a0 d5bd b4cc 13be
00000150: 7c2b 813e 36c6 91be f155 973d 9d6e fb3d
00000160: b01b 183e 922e 543e c95c 24be c3f1 cebd
00000170: c0e9 da3d 905d 95be 33e1 06bd 2cf3 2f3d
00000180: 4537 da3c 6847 67bc 249a 613e efb8 36bd
00000190: cf5e 753d f8fb 113e 8139 b5bd 6c4c 0fbe
000001a0: 6d5f 0a3e a6a4 afbd e0f5 34be 22e5 d1bd
000001b0: 3d12 623e e47e 433e 42e2 31be 57fe 08be
000001c0: ee94 a9bd be81 b23d 70a9 973d 9e79 323d
000001d0: 1c86 f3bd 78bb 293d daf0 5bbe 5324 be3d
000001e0: 4406 3f3d a07b 2f3e 91d6 d93d 0163 3abd
000001f0: 19a5 ce3c 4bce 213e 9a28 873d 9c7f ecbd
00000200: 0e24 4bbc 9dd7 a9bd 32d7 48bd 2764 163d
00000210: 3627 263e eba7 c33c 1486 b6bd 6b94 14be
00000220: 0801 b4bd d6e6 063e 23fe 84bd 1690 03bd
00000230: 4e93 d5bc 5a04 53bc e14e 8abb 1f2f 00bd
00000240: 686d b4bd 55af 723d 10e7 ab3d 23f8 f6ba
00000250: 1f04 e9bd 78c5 003d cfc4 cdbd 4af0 0a3e
00000260: fd81 13bd 8262 67be 30ce 97bd 0034 56bd
00000270: 29e1 8a3d 5b7d 483e ab35 403e d064 69bd
00000280: 2e43 8fbd b574 a93d ca1a e03d f71f fa3d
00000290: b7e2 d7bc 3ab8 da3d 1842 f03c d02f 55be
000002a0: 6a5c ad3d 3c3a 5bba c409 d43d b45a 07be
000002b0: 7c31 dabd 5f96 e5bd f215 f33d cacd 07bc
000002c0: 7b9e cabd b6eb afbd 5500 463e 3beb b53d
000002d0: b071 a43d 28fa 953d 29c5 1b3e 6e97 573e
000002e0: 1272 70bd 4f5a 68be 4f2b ecbd 0d4a 0b3e
000002f0: d2c5 3a3d 10b5 b9bd 75a9 33bd f45a cf3c
00000300: 4a07 213d beed 63be f16d 9e3d 3f6e 833e
00000310: 6960 e43c 4ddf ed3b 0898 e5ba fcbd 863c
00000320: 7057 98bd a793 8ebd edb6 b3bd fe26 10be
00000330: 026c 0dbd 183c 9ebb 1a1c 103d 9e5c 23bc
00000340: da26 cabd 5e47 963d 9bb1 4fbd 16df 113d
00000350: 5c01 0fbe 0b17 b4bd a07c 44be 79bc ee3c
00000360: 062b 0dbe d4e1 4c3e 78e4 bcbd 8c49 72bd
00000370: 32c7 03bd 53b6 53be 9943 edbd 392c 163e
00000380: f377 da3c 1584 a53d fbd9 42bd 073c 2ebe
00000390: 6e59 ccbd 2d35 8cbc c792 e43d 1ca4 143d
000003a0: 42ef 723d a076 02be dc15 153c 17bc a3bc
000003b0: 5f66 573b 38f6 113e 362e 26be 8aac c5bd
000003c0: 4479 c7bd 3594 773e 218a 11be ad13 64bd
000003d0: a91c 5a3d 2f1a d3bd 0efc 02bd 6843 e03d
000003e0: a5d6 69bc 26f7 143b 6ddc bbbd 1d16 b0bd
000003f0: 955d 433e 378f 5abe 9f42 6e3d 1b82 993d

line_stack.2.bias f4 [64]
0.3236306 0.108691014 -0.033578523 0.010371927 0.057327792 0.12748231 -0.23512973 0.03367398
-0.0010313478 -0.0045545963 0.0005562917 -0.12930557 0.04260654 -0.0004690338 0.014826989 -0.0069054742
0.042431027 0.25277346 -0.039218873 -0.05422338 -0.03098919 -0.053181678 -0.08545375 -0.10822367
0.0137060555 -0.05697369 0.03879467 -0.028756075 0.014157463 0.1143275 -0.10011213 0.36992794
-0.01131033 0.062221482 -0.026620364 -0.023291858 0.116483495 -0.1319093 0.013108012 0.024463005
0.012659653 -0.081515536 0.054052997 0.043263443 -0.049600303 0.114009336 -0.01662786 -0.03649441
-0.27721512 0.07296259 -0.014638207 -0.059383813 0.08543653 0.021201586 0.004513625 -0.09650379
-0.015307971 -0.027317319 -0.10511898 0.07863894 0.025095886 -0.04161576 0.04813648 0.006070152
00000000: e9b2 a53e 6599 de3d a289 09bd 04ef 293c
00000010: 8cd0 6a3d b98a 023e d9c5 70be baed 093d
00000020: 4a2e 87ba b93e 95bb 1bd4 113a ae68 04be
00000030: 3284 2e3d a7e8 f5b9 e6ec 723c 5147 e2bb
00000040: 28cc 2d3d 866b 813e f8a3 20bd 5619 5ebd
00000050: 0bdd fdbc 08d5 59bd 6002 afbd 5fa4 ddbd
00000060: 5d8f 603c 3e5d 69bd 29e7 1e3d dc91 ebbc
00000070: b4f4 673c 8924 ea3d 9707 cdbd 3267 bd3e
00000080: f64e 39bc f4db 7e3d f312 dabc 91ce bebc
00000090: e68e ee3d 3b13 07be fdc2 563c a466 c83c
000000a0: 6f6a 4f3c 9ef1 a6bd ad66 5d3d 0235 313d
000000b0: b029 4bbd ba7d e93d 2637 88bc 2a7b 15bd
000000c0: 24ef 8dbe 696d 953d 17d5 6fbc 713c 73bd
000000d0: 59f9 ae3d f3ae ad3c 08e7 933b c7a3 c5bd
000000e0: 49ce 7abc 92c8 dfbc 9f48 d7bd 740d a13d
000000f0: e395 cd3c 4a75 2abd c22a 453d 20e8 c63b

line_stack.4.weight f4 [1, 64]
-0.2808161 -0.00029955964 -0.0008593493 -0.00015041395 -0.00047538264 -0.07365625 0.018123662 -0.007624894
-0.0001452679 -0.0003437119 0.002081025 0.057203688 0.00036248114 -4.7833855e-06 -3.596727e-05 0.0022608384
-0.00037254603 -0.09218045 0.0009768754 0.1565249 0.0002942617 -0.0003023165 1.1481316e-06 -0.3441284
5.430969e-05 0.00022081583 -0.0019977405 -0.0019384042 -0.00012574822 -0.12902205 0.070413806 -0.29257315
-0.00096861616 0.00076463306 -0.0021921783 0.0005345623 -0.0019937654 0.06010798 0.41154668 -0.029258227
-0.0008206917 0.20020795 -0.0012915329 0.00022590833 0.00020062935 0.33094832 0.0011201253 0.0010874302
0.21133594 0.004756848 -0.00063397194 0.0042917873 -0.08450924 0.0015633602 -0.0006374586 0.07305833
0.00034419156 0.009000735 0.07823583 -0.0025830246 0.0013908342 -0.0005560446 -0.0010063015 -0.0077608945
00000000: 21c7 8fbe 370e 9db9 f545 61ba 70b8 1db9
00000010: c73c f9b9 17d9 96bd 1378 943c 3fda f9bb
00000020: 0e53 18b9 3b34 b4b9 ce61 083b 6a4e 6a3d
00000030: 650b be39 f880 a0b6 90db 16b8 932a 143b
00000040: 4852 c3b9 1bc9 bcbd 800a 803a 1048 203e
00000050: 2347 9a39 3c80 9eb9 8019 9a35 9931 b0be
00000060: 96ca 6338 cc8a 6739 86ec 02bb 0d12 feba
00000070: 48db 03b9 5b1e 04be 1d35 903d 26cc 95be
00000080: bbea 7dba a871 483a a6aa 0fbb de21 0c3a
00000090: d5a9 02bb c933 763d 3fb6 d23e f3ae efbc
000000a0: b023 57ba 5003 4d3e a748 a9ba cee1 6c39
000000b0: 0860 5239 0f72 a93e 2bd1 923a 1a88 8e3a
000000c0: 7368 583e 55df 9b3b 2331 26ba 1fa2 8c3b
000000d0: 2e13 adbd aae9 cc3a 1f1b 27ba 9b9f 953d
000000e0: 9c74 b439 d277 133c 1b3a a03d f647 29bb
000000f0: a74c b63a 85c3 11ba e0e5 83ba 1a4f febb
