Single_pendulum/models/model.pt (torch, 3380 bytes, 5 tensors)

line_stack.0.weight f4 [12, 2]
00000000: 2b06 f33e 713e 223d 6647 ecbd f66e 94be
00000010: 3ac7 b43d a138 5b3e b1ff c43d 7c4a 813e
00000020: f676 7cbe 979e 873e ab36 53bf f619 92be
00000030: 7c43 b33e cfb5 933d fb2c 173e 828b d33e
00000040: 9173 3dbe ffb2 493f 64f1 8b3d aeac c6be
00000050: ffe3 7b3e 423c 1ebd eb8c 00bf b48f 2ebe
0.47465643 0.03961033 -0.11537056 -0.28990906 0.08827062 0.21408321 0.09619082 0.2525214
-0.24654755 0.26488182 -0.8250529 -0.28535432 0.35012424 0.072124116 0.14763252 0.41317374
-0.18501116 0.7878875 0.06833151 -0.3880362 0.24598692 -0.038631685 -0.50215024 -0.17047006

line_stack.0.bias f4 [12]
00000000: cd01 d8bc 26e8 3dbd 70ec e83c 5145 10bd
00000010: b2e6 293c f43d 11be 08a0 dfbd 07df 7cbd
00000020: 4243 72bd fdc7 21bd 637e 31bc 2930 9c3d
-0.026368046 -0.046363972 0.028433055 -0.035222355 0.010369943 -0.1418379 -0.109191954 -0.061736133
-0.059146173 -0.039497364 -0.010833356 0.07626373

line_stack.2.weight f4 [12, 12]
00000000: 34e4 d5be 1fa1 f8bc 9b87 c43d 75a9 fb3d
00000010: 36ac ccbc d1d1 b23e c878 82be f72b 0d3e
00000020: 2d62 553e eb68 b63d 6238 39bd 9280 24be
00000030: 313f 4a3e 5ba3 d33d acdc 023e 2b49 3d3e
00000040: 25ab d33d 51ac 36be fb2a 853d 5e51 c8bc
00000050: f88f 8f3e 78d7 b23e 2b23 5a3c 8202 043f
00000060: bf33 fe3d dfdb 023e 1644 b13e 4160 5bbe
00000070: 26ec fa3e 3802 eb3e 8e72 babe 496f 07bf
00000080: 41ea b9be 5d62 62be d281 e33e 0917 113f
00000090: 6c86 1a3e 528d d6bd 5f1f 17bf 9680 963c
000000a0: 3a31 e53e 384a e83d 5ed1 b7bd 0de6 303e
000000b0: e79c 9ebd 682c 8e3e 268b 813e 5402 54be
000000c0: 3936 493e d2b9 933e ed17 753e 9500 15be
000000d0: 8b1b 96be 77c3 d33b a377 c73e 09c2 1bbf
000000e0: 8a61 803d 9fc1 a4be a687 cdbe e083 9c3e
000000f0: b050 d9be 3a44 44be a562 b23c fce5 03bf
00000100: a210 1ebe 8309 51be 2a59 453e 2bad b0bc
00000110: 0715 fabd f446 3dbe 7236 96be d898 813e
00000120: bbca 0c3e bb0f 103f 4369 963e e2fd e33e
00000130: 9a66 30be 93e7 b6be fc9c 573d 1d19 08be
00000140: 4aca f33e 08f3 0a3e 4ace 553e 7ec4 4d3e
00000150: 2970 023f 4501 b33d 3d55 46be 43ec d83e
00000160: cb08 123c cf9c 7f3e 6414 083f c611 263f
00000170: a136 7bbc 29ff 113f b848 443f 9a45 eebe
00000180: a0e9 d7be 5667 3b3e 3ef4 ec3e bf9c 2dbe
00000190: 7c3d 97be 6d11 82be fd52 493e 59ee 64bd
000001a0: f5cb d4be 4e15 63be b737 6dbe e00a 083f
000001b0: 723d 0a3e eaf3 febe 91ef 48bf 181c fdbe
000001c0: b5c2 94be 2757 3cbd 3549 3fbe fe2e f6bd
000001d0: c0cb 04be 709d 44bd 84a6 043d fac4 d0be
000001e0: 5720 08be 29f1 2bbd 084d 33bd 0022 f53e
000001f0: 41a3 6abe 3900 5ebe 61a7 353e ee05 a53e
00000200: 5eeb 32be e6f1 8abe 3359 0cbf 92f7 543e
00000210: 2def b63c c483 19be 87da 263e 1974 c1be
00000220: 6307 49be 3276 04bd 654c 51bd 145a ed3e
00000230: c6c6 fbbd 0a99 853e 7d1f a83e 9218 e1bd
-0.41775668 -0.030350266 0.09596177 0.12288181 -0.02498446 0.34925702 -0.25482774 0.13786303
0.20838232 0.0890673 -0.045219786 -0.1606467 0.19750668 0.10333892 0.12779492 0.18484943
0.103353776 -0.17839171 0.065023385 -0.024452861 0.28039527 0.34930015 0.013314049 0.51566327
0.124122135 0.12779187 0.34622258 -0.21423437 0.49008292 0.4590013 -0.36415523 -0.5290418
-0.36311534 -0.22107835 0.44434983 0.56675774 0.1509034 -0.104761735 -0.59032243 0.018371861
0.4476412 0.11342281 -0.089754805 0.17275257 -0.077447705 0.27768254 0.25301474 -0.20704013
0.1964959 0.28852707 0.23934908 -0.14551003 -0.2931789 0.00646251 0.38958463 -0.6084295
0.06268604 -0.3217897 -0.40142554 0.30569363 -0.42444372 -0.19166651 0.021775553 -0.51522803
-0.15436032 -0.20413785 0.19272295 -0.021566948 -0.12211042 -0.18484098 -0.29338413 0.25311923
0.1374921 0.56274 0.29377183 0.44529635 -0.1722664 -0.35723552 0.052639946 -0.1329083
0.47615272 0.13569272 0.20879474 0.20094487 0.5095239 0.087404765 -0.19368453 0.42367753
0.008913229 0.24962161 0.53156114 0.6487087 -0.015332849 0.5702997 0.7667346 -0.46537477
-0.4217043 0.18301138 0.46280092 -0.16954325 -0.29539096 -0.2540392 0.19660564 -0.05589137
-0.41561857 -0.22176096 -0.23165785 0.53141594 0.13500002 -0.49795467 -0.7849055 -0.49435496
-0.290548 -0.045981552 -0.1868027 -0.12020682 -0.1296835 -0.048001707 0.032385364 -0.4077528
-0.13293587 -0.041978035 -0.043774635 0.47877502 -0.22913839 -0.21679772 0.17739631 0.32231086
-0.17472598 -0.2713768 -0.5482361 0.20797566 0.022330845 -0.14991671 0.16294299 -0.37783888
-0.19631724 -0.032339282 -0.051098246 0.46357787 -0.122937724 0.26093322 0.32836524 -0.109910145

line_stack.2.bias f4 [12]
00000000: 1f85 2f3c 3f48 c2b9 8c32 8c3d 86e1 34bb
00000010: 9c18 393c 6605 a03b 9a05 98bc 4e50 07bc
00000020: dd27 95bc af0f ccbb b0ea 323c 9640 00bc
0.010712891 -0.0003705639 0.068455786 -0.0027600243 0.011297371 0.004883456 -0.018557359 -0.008258892
-0.018207485 -0.0062274556 0.010920212 -0.0078278985

line_stack.4.weight f4 [1, 12]
00000000: d061 cd3c 6d49 d23d 3fea e1bd 6db7 dc3e
00000010: e749 fb3b 30c5 32bf 2b48 313e d071 353f
00000020: b04a 653e d3b3 71bd 1da6 ddbe 7daa 013e
0.025071055 0.10267911 -0.11031007 0.43108693 0.007668722 -0.69832134 0.17312686 0.7087679
0.22391772 -0.059009384 -0.43290797 0.12662692
