Single_pendulum/models/model_singlependulum.pt (torch, 3594 bytes, 5 tensors)

line_stack.0.weight f4 [12, 2]
0.15088362 0.03539918 -0.92252934 0.18152727 -0.41943362 -0.073269516 -0.66948605 -0.5348518
-0.09216948 -0.3141725 -0.85698533 -0.15755494 -0.08961505 -0.16038698 0.44346616 -0.0226386
0.29139283 -0.67922366 -0.19891195 -0.047528867 -0.26069516 -0.0058871945 -0.1831574 0.58643574
00000000: 3c81 1a3e bbfe 103d e22a 6cbf 49e2 393e
00000010: 01c0 d6be 540e 96bd 7063 2bbf 0cec 08bf
00000020: 5ac3 bcbd 38db a0be 6463 5bbf 1556 21be
00000030: 1888 b7bd 7c3c 24be ff0d e33e 9674 b9bc
00000040: 7131 953e 9ae1 2dbf 93af 4bbe a1ad 42bd
00000050: d679 85be 5ee9 c0bb 9d8d 3bbe a720 163f

line_stack.0.bias f4 [12]
-0.092944406 -0.029898794 -0.08073832 -0.16056083 -0.080024816 0.20225759 -0.060150664 0.062315132
-0.08337815 0.08527371 0.0638014 -0.004317351
00000000: a359 bebd 51ee f4bc 225a a5bd 0f6a 24be
00000010: 0de4 a3bd 9d1c 4f3e 8b60 76bd 273e 7f3d
00000020: 2ac2 aabd fca3 ae3d 4faa 823d 9178 8dbb

line_stack.2.weight f4 [12, 12]
0.10273287 -0.27696264 0.21493088 -0.5491477 -0.021927958 -0.12342919 0.38864213 -0.0970369
0.3295304 -0.34732652 -0.07053451 0.19089916 0.46764633 0.24531183 0.05446797 0.13303007
0.081918545 -0.10893469 0.11461853 0.01276636 0.16930261 -0.030181179 -0.22872594 0.054415375
0.30953327 -0.57620114 -0.3572216 -0.13538621 -0.39622444 0.16242562 0.025313485 0.41642153
-0.015213837 -0.59587085 -0.78765243 -0.36362472 0.042995602 -0.121102475 0.42972532 0.20310092
-0.22720765 0.05077456 0.5652721 0.09465933 0.040989418 -0.18291685 0.5290796 0.22186378
-0.27479732 -0.32432216 0.49931946 0.24942479 0.05792144 -0.66311413 -0.1256931 -0.0066447975
-0.30231702 -0.07306385 -0.13776419 0.32136336 0.11449604 -0.18713629 -0.07834809 0.111970425
0.14543237 0.49758145 0.038516372 -0.37719393 -0.56991047 0.06058483 -0.2759266 -0.24065113
0.43504563 -0.007731089 -0.29411218 -0.33970472 -0.20370902 -0.48828277 0.19479941 -0.76927066
0.1489711 -0.43071592 0.20128737 -0.49717584 -0.29655665 0.13938512 -0.15176229 0.18595514
0.028109016 0.3991739 -0.14715321 0.30171162 -0.55606765 -0.06852421 0.1970008 0.061927374
0.048417658 0.122934386 0.2708967 0.17212604 0.44259948 -0.12537839 0.40242523 -0.27147537
0.65219575 -0.10903385 0.23620912 0.2425557 -0.23522092 -0.1685796 -0.013726554 0.6201757
0.18584 -0.24364598 -0.04465008 0.28515434 0.08872492 -0.301534 0.24835595 0.8466018
0.46710277 0.32436845 0.10057898 -0.5490565 0.013357998 -0.027959855 -0.21750453 -0.3457055
0.10927892 -0.73634946 -0.439349 0.082731634 0.12978183 0.39355102 -0.13542406 0.66294694
-0.16401422 0.022943936 -0.17332888 -0.4605996 -0.06771772 -0.43226802 0.19035164 0.5949129
00000000: 9c65 d23d 0cce 8dbe d716 5c3e f294 0cbf
00000010: 43a2 b3bc 71c8 fcbd 1afc c63e 48bb c6bd
00000020: 35b8 a83e c8d4 b1be 6674 90bd 127b 433e
00000030: 576f ef3e 0633 7b3e ce19 5f3d 0939 083e
00000040: e9c4 a73d 2719 dfbd 1fbd ea3d ff29 513c
00000050: aa5d 2d3e 853e f7bc 2237 6abe a8e2 5e3d
00000060: 257b 9e3e eb81 13bf c0e5 b6be afa2 0abe
00000070: eedd cabe e752 263e 3a5e cf3c 3435 d53e
00000080: 7543 79bc fe8a 18bf 97a3 49bf 052d babe
00000090: 281c 303d 9304 f8bd f504 dc3e b0f9 4f3e
000000a0: 1fa9 68be fcf8 4f3d acb5 103f c0dc c13d
000000b0: 85e4 273d 8e4e 3bbe c371 073f 4230 633e
000000c0: 3cb2 8cbe 8e0d a6be cda6 ff3e 3669 7f3e
000000d0: 083f 6d3d d9c1 29bf b1b5 00be 9abc d9bb
000000e0: 4cc9 9abe 80a2 95bd 0e12 0dbe bd89 a43e
000000f0: e67c ea3d a8a0 3fbe f774 a0bd c050 e53d
00000100: 39ec 143e ffc2 fe3e 58c3 1d3d 901f c1be
00000110: a7e5 11bf cc27 783d 4046 8dbe 406d 76be
00000120: 4dbe de3e 1355 fdbb df95 96be c7ed adbe
00000130: 1999 50be 3300 fabe 7f79 473e ecee 44bf
00000140: e18b 183e cc86 dcbe 471e 4e3e d58d febe
00000150: 46d6 97be f9ba 0e3e 9367 1bbe 066b 3e3e
00000160: e144 e63c 8560 cc3e 55af 16be f279 9a3e
00000170: 735a 0ebf 6c56 8cbd 94ba 493e 8fa7 7d3d
00000180: 9851 463d 06c5 fb3d f9b2 8a3e cf41 303e
00000190: 669c e23e 3163 00be ae0a ce3e d2fe 8abe
000001a0: 4df6 263f 244d dfbd cee0 713e 8560 783e
000001b0: c1dd 70be 21a0 2cbe 57e5 60bc d6c3 1e3f
000001c0: d74c 3e3e 557e 79be 01e3 36bd c0ff 913e
000001d0: 69b5 b53d aa62 9abe 0651 7e3e e5ba 583f
000001e0: 1828 ef3e 9f13 a63e 5afc cd3d f78e 0cbf
000001f0: 81db 5a3c 110c e5bc 82b9 5ebe 5000 b1be
00000200: a0cd df3d 6681 3cbf 5af2 e0be 346f a93d
00000210: 87e5 043e 857f c93e 9bac 0abe e4b6 293f
00000220: 58f3 27be ecf4 bb3c 207d 31be b6d3 ebbe
00000230: 97af 8abd 3c52 ddbe 8aeb 423e 364c 183f

line_stack.2.bias f4 [12]
0.001679535 0.008689015 -0.053979106 0.057988856 0.027185207 0.01120992 -0.022736156 0.010095596
-0.08884016 0.0073705167 -0.043973543 0.056973137
00000000: d823 dc3a 5f5c 0e3c 3219 5dbd b985 6d3d
00000010: 83b3 de3c d0a9 373c 2d41 babc 0068 253c
00000020: d4f1 b5bd 6084 f13b 9a1d 34bd aa5c 693d

line_stack.4.weight f4 [1, 12]
0.35320958 0.6329097 0.10446139 -0.50873727 0.62279123 -0.30174288 0.21366388 -0.4933993
0.6756177 0.92974186 0.15037087 -0.09187517
00000000: e3d7 b43e 5f06 223f daef d53d 9b3c 02bf
00000010: 3f6f 1f3f 0b7e 9abe b4ca 5a3e d59e fcbe
00000020: 48f5 2c3f 9003 6e3f d2fa 193e 0d29 bcbd
